model/model.pth (torch, 551689 bytes, 126 tensors)

ct.net1.weight f4 [4, 4, 1, 1]
000000 11 ba f4 3e a4 eb e9 3e df 72 05 3f 6a e3 ed 3e
       0.47798207 0.45687592 0.52128404 0.46462566
000010 d0 4c 07 bf 6e fc 09 3f fd 3a 0d 3f a4 d7 06 bf
       -0.5285158 0.539008 0.55168134 -0.5267279
000020 16 c7 32 3f 74 f7 8c 3e 30 f9 9c be 3c 40 2f bf
       0.6983503 0.27532542 -0.30658865 -0.6845739
000030 06 bc 92 be 4a 4c 28 3f 27 02 2c bf 75 93 89 3e
       -0.28659075 0.6574141 -0.67190784 0.26870313

ft.net1.weight f4 [2, 1, 1, 2]
000000 9b 2a 2c 3f 63 9c 38 3f 8e ae 38 3f 4b f0 46 bf
       0.6725251 0.7211363 0.7214135 -0.7771041

fti.net1.weight f4 [1, 1, 2, 1]
000000 b3 c7 3e 3f 4d 0f 31 3f
       0.74523467 0.6916397

fti.net2.weight f4 [1, 1, 2, 1]
000000 91 15 31 3f fa 23 25 bf
       0.6917353 -0.6450802

vd.fusion.net1.weight f4 [16, 5, 3, 3]
000000 b5 56 ee bc 53 4a f7 bc 66 a8 bc bd c7 6d 66 3d
       -0.02909408 -0.030186808 -0.09211807 0.056257036
000010 c7 e2 f4 bc c1 a3 ab bc 65 7c 61 3c 1a 3d af bd
       -0.029893292 -0.020952107 0.013762568 -0.08556576
000020 18 49 17 3d b8 7b b9 3c 14 76 fa bd 0a 8b f3 3d
       0.036934942 0.022642002 -0.12229553 0.11891754
000030 26 78 ce 3d 13 0d 30 3e 64 95 85 bc 8d 62 af 3d
       0.1008151 0.17192487 -0.016306587 0.08563719
000040 12 4b a8 bd df cb 95 3d a1 1a 1e be d6 b2 6b 3d
       -0.082174435 0.07314276 -0.15439846 0.057543598
000050 07 d9 f2 bc 0a 14 8c be fe 83 44 3e e3 7f 13 3e
       -0.029644502 -0.2735904 0.19190976 0.14404254
000060 bf c6 90 3d 7a 88 cd 3d 87 a7 b7 bd 68 33 a9 3d
       0.07069158 0.100357965 -0.089675 0.08261758
000070 76 e0 b7 3e 95 12 82 3e c3 bd 65 bd c4 55 de bd
       0.35913438 0.25404802 -0.056089174 -0.10856202
000080 07 75 f5 3d d9 13 42 bd 07 e1 ac 3d 70 34 89 3d
       0.11985212 -0.04738221 0.08441358 0.06699455
000090 d5 43 2b bf 25 68 64 bf aa fa 5f bf 7f f0 5a bf
       -0.6690038 -0.8922141 -0.8749186 -0.8552322
0000a0 45 f4 7d bf af f4 58 bf e0 e5 21 bf 82 30 4d bf
       -0.9920085 -0.8474836 -0.63241386 -0.8015214
0000b0 6a e6 56 bf ae 9b 33 3d 13 ba 5a be bb 6e 2c be
       -0.83945334 0.04384964 -0.21360044 -0.16839115
0000c0 a1 38 89 3e d8 f0 c1 3c 80 c0 07 3c 93 2f cb bd
       0.26801017 0.023674414 0.008285642 -0.099211834
0000d0 ec 89 d5 3d de 20 21 bd ad 47 33 3e a6 57 93 3e
       0.10426697 -0.039337985 0.17507811 0.28777808
0000e0 08 a9 be 3e 77 97 bf 3d 8d f7 bf bc 70 13 3b 3e
       0.37238336 0.093550615 -0.023433471 0.18269134
0000f0 44 ed cd 3d b9 33 e0 3d 3f 3f 98 3e ce 1c a3 3d
       0.100550205 0.10947365 0.29735753 0.079644784
000100 64 56 d5 bd 93 eb 8d bc b1 c0 6f 3d 58 ef c2 3d
       -0.10416868 -0.017324245 0.058533374 0.095183074
000110 c1 ba 18 be 7d 77 e7 bd 6f 2e d9 3d a1 b3 0a be
       -0.14914991 -0.113020875 0.1060456 -0.13545085
000120 8b 73 19 3e 5b 59 07 3e 60 19 73 3e 3f af a8 3e
       0.14985482 0.1321768 0.23740149 0.32946202
000130 8a ca b0 3e 2b ba 69 bd 8d c1 62 3d 11 11 71 3d
       0.34529525 -0.05706231 0.055360366 0.058854166
000140 f6 e7 e5 bb 06 8a 84 bf 36 f8 90 be 36 38 3e 3f
       -0.0070161773 -1.0354621 -0.2831437 0.7430452
000150 8b 9c 8d bf 26 c6 5e bf 89 7a 8c 3e fb 28 af bf
       -1.1063398 -0.870211 0.27437237 -1.3684381
000160 0c 46 80 bf de b0 70 3d d7 5d 49 bd 83 f3 57 be
       -1.0021377 0.058762424 -0.04916176 -0.21088986
000170 bf c2 90 bd ad 7a 64 be 7f 21 8f bd e0 30 6a bd
       -0.07068395 -0.22312422 -0.06988811 -0.057175517
000180 ae 26 76 bd ae 71 6a bd 10 df 34 be 4d c7 8b 3d
       -0.06009548 -0.05723732 -0.17663217 0.06825123
000190 84 72 9e bd 33 41 0f bd 8c 02 26 bd 51 d3 6b 3d
       -0.07736686 -0.03497429 -0.040529773 0.057574574
0001a0 94 6c 32 3c 45 f4 cd bc e7 45 39 3e 1f 0d 01 3e
       0.010890145 -0.02514089 0.18093072 0.12602662
0001b0 2d c5 88 3d be e1 f5 3d c6 fe 38 3e 42 25 6c 3e
       0.06678233 0.120059475 0.18065938 0.23061088
0001c0 55 92 85 3d 8a e7 6e 3d c5 1f 37 3e e0 b0 60 3d
       0.06522051 0.05832628 0.17883213 0.05485618
0001d0 8b 0e 7b 3d 8d d1 54 bd 93 9e 2a be f1 64 2d be
       0.061293166 -0.051957656 -0.16662054 -0.16933037
0001e0 99 71 5a be 4a fc 21 be 26 de e8 bd e2 02 9d bd
       -0.21332397 -0.15818897 -0.113704965 -0.076665655
0001f0 d2 32 b9 3c 3b 23 41 bd 54 1a 43 3f d0 bb 53 3f
       0.02260724 -0.04715274 0.7621205 0.82708454
000200 2f 86 5e 3f 29 7f 25 3f 96 ee 10 3f 44 7e d2 3e
       0.869235 0.64647156 0.56614053 0.41111958
000210 a8 94 d1 3e b7 d3 13 3f f5 ce 9e 3e 9d 04 0d 3d
       0.40933728 0.57744926 0.3101727 0.034428228
000220 da 2e 1d be 19 e1 08 bd 34 f1 3d bd 52 86 94 3d
       -0.15349904 -0.033417795 -0.046372607 0.07252182
000230 14 b8 35 bd 96 e6 8b 3d b4 5f bf 3d 31 b3 39 be
       -0.044365004 0.0683109 0.09344426 -0.18134762
000240 61 82 62 bd 4b 66 5a bc 13 b8 ef bd 7d 0c ed 3c
       -0.05530012 -0.013330053 -0.11705031 0.028936619
000250 51 a5 27 3e 58 7c 8d be 0d 12 5c bd 68 6e 68 bc
       0.16371657 -0.2763393 -0.053728152 -0.014186479
000260 f5 c7 70 bd 9b 00 31 3e af bd c1 3d 9b 5c cb be
       -0.058784444 0.17285387 0.094600074 -0.3971909
000270 b2 14 8a 3d 17 96 18 3e a1 0d a8 be c4 35 1e be
       0.067422286 0.14901005 -0.32822898 -0.15450197
000280 89 fd 02 3e 7d f5 a6 3d 81 46 91 3d 7e eb 81 3c
       0.12792028 0.08152292 0.07093526 0.015859362
000290 37 0c fc bd 1e 95 ec 3d 09 6a aa 3e 40 17 92 be
       -0.12307017 0.11551879 0.33284023 -0.28533363
0002a0 47 7e 56 3c 27 ec 45 3e f5 ba aa bd 86 41 af 3e
       0.01309163 0.19328366 -0.083364405 0.34229678
0002b0 ce 63 0c 3e 44 f0 e2 3e 8a 44 66 3e 4e 7e 3e 3e
       0.13709947 0.44323933 0.22487083 0.18602869
0002c0 8d 3a 09 3f 3b 15 c3 3e 77 58 36 3e 81 3b 25 3f
       0.53604966 0.38102135 0.17807184 0.6454392
0002d0 7b 5d aa bd 6e 5d 58 3e 62 11 0e bd 5c f9 a1 bd
       -0.08318611 0.2112939 -0.034684546 -0.0790889
0002e0 d9 f1 ec bd 86 05 37 3e ba 3f 93 3d cf 07 c1 bd
       -0.11569566 0.17873201 0.07189889 -0.094253175
0002f0 40 95 39 bd 9b 79 27 3e a5 76 80 3e d0 30 e0 b9
       -0.04530835 0.16354983 0.2509052 -0.00042760978
000300 bc bf 2d 3d f4 4f 21 3e d1 31 27 3e 82 13 a9 ba
       0.04241918 0.15753156 0.16327597 -0.001289949
000310 e6 ce 31 3c 1f e6 e9 3c d2 60 80 bd ef d4 3f bd
       0.010852551 0.028552113 -0.06268467 -0.04683393
000320 54 78 75 bc 81 69 8a bd a7 45 1c 3e 87 0a 4e 3d
       -0.014982302 -0.067584045 0.15260945 0.05030301
000330 f4 c1 4c 3d 45 35 00 3c dc 96 82 bd e5 8b c5 3d
       0.049989656 0.0078252 -0.063764304 0.096458234
000340 e4 7c 0f 3e 4a 3f 5d 3e 4f de 8a 3e 07 83 62 3e
       0.14012486 0.21606174 0.27122733 0.22120295
000350 8a 94 f1 3d 13 ca e5 3d ce 37 38 bc be 58 fc ba
       0.1179591 0.11220183 -0.011243774 -0.0019252521
000360 2b cc 67 be 75 08 8c bd ed 76 c7 bd a7 3e 6d 3e
       -0.22636478 -0.068375506 -0.0973948 0.23168431
000370 e1 9e 52 3e a1 88 4b 3d 14 50 aa 3e 69 48 47 3e
       0.2056842 0.049690846 0.3326422 0.19461216
000380 18 e7 a3 3e 69 ad 62 bd 01 ab 6d be b0 ba e0 bd
       0.32012248 -0.055341158 -0.23209764 -0.10973108
000390 61 ac 47 be ef 8a 52 bc 16 d2 ae bb 7d 68 c6 bd
       -0.19499351 -0.012850507 -0.005335103 -0.09687898
0003a0 6a 9c c5 3d 73 99 0c 3e 1d f7 38 3e b9 21 e9 3d
       0.09648974 0.13730411 0.18063016 0.11383385
0003b0 54 39 bd 3d 4e 4e 39 3d 3c e0 e9 3d 3d 6e b5 3d
       0.0923945 0.045240693 0.114197224 0.08858917
0003c0 de 43 20 3e b4 8c f4 3d e2 7a 1c 3d 64 b2 4d bd
       0.1565089 0.119408995 0.038203128 -0.050218955
0003d0 2b a5 33 be ab 21 62 be 15 63 d2 bd 92 b4 ab 3d
       -0.17543475 -0.22083156 -0.10272805 0.083840504
0003e0 dd 4b cb bd 5a e3 72 be 9d 4a dd bd dc e8 2e bd
       -0.09926579 -0.2371954 -0.10805247 -0.04270254
0003f0 62 ed a5 3d fc ba ff 3d 9c 31 c1 3d 48 3b 28 3d
       0.08101918 0.12486836 0.0943329 0.04107216

vd.fusion.net1.bias f4 [16]
000000 ca 2e 8d bd 1a ac 1a 3d 8a 6a 19 3e 47 67 06 bd
       -0.0689369 0.037761785 0.14982048 -0.032813337
000010 bc 7a ba bc 44 09 e3 3d bf a3 75 bc e0 27 89 3d
       -0.022763602 0.11085752 -0.014992653 0.06697059
000020 60 e4 5d bc ee 58 a5 3d 2d c7 89 3d 24 eb 1f be
       -0.013543218 0.080736026 0.06727443 -0.15617043
000030 13 4b fe ba 6a cd ac 3c af 3e c0 bb f0 7f 51 3d
       -0.0019401036 0.021094043 -0.0058668475 0.0511474

vd.fusion.net2.weight f4 [16, 16, 3, 3]
000000 b4 30 85 3e f6 56 68 3d 5a e2 18 3e 45 d6 31 3e
       0.2601372 0.056723557 0.14930096 0.17366894
000010 2c c3 78 3e 84 fc 67 3e 30 84 1c 3e 3b 68 03 3e
       0.24293202 0.22654921 0.152848 0.1283273
000020 c8 e0 0b be 6a ea df bd 16 b1 3f bd be 23 55 bc
       -0.13659966 -0.10933383 -0.04679974 -0.01300901
000030 f5 3c 8b bd 4c 90 77 3d 5c a3 32 3e cd fd 51 3c
       -0.06798736 0.060440347 0.17445129 0.0128168585
000040 91 5b fe 3a 92 1f a6 bc 7d 0c e2 3d 87 47 e0 3d
       0.0019405951 -0.020278726 0.11037538 0.10951143
000050 a8 ef 09 3e 9e 64 a6 3d 7f b3 12 3d 52 e2 9e bc
       0.13470328 0.0812466 0.035815712 -0.019395027
000060 c7 c3 2a bd 96 68 f0 bc 64 62 a6 bd 81 6b 2c 3e
       -0.041690614 -0.029346745 -0.08124235 0.16837884
000070 3a ec 21 3e 7e 1e 08 bf 9f 3a d6 bd 86 94 7e 3d
       0.1581277 -0.5317153 -0.104604 0.06215336
000080 25 d4 31 be 49 7d ff bb 97 9e 23 3c da a5 d4 bc
       -0.17366083 -0.0077969176 0.009986541 -0.02595799
000090 77 0c f5 bc 04 bf 40 be ee ed ef bd 5a 8d 62 bd
       -0.02991317 -0.18822867 -0.11715303 -0.055310585
0000a0 d6 47 ab bd d0 7f 49 be 13 16 5d bd 3d 7e bc 3d
       -0.08363311 -0.19677663 -0.05397613 0.092037655
0000b0 7f 9e bc 3d d7 58 d5 bd 44 81 c8 bd 35 2b 39 bd
       0.09209918 -0.104173355 -0.097902805 -0.04520722
0000c0 b2 da 9d 3d 9b c1 18 3e 7e 1c 67 3d b4 61 d4 3d
       0.077077284 0.14917605 0.056423657 0.10370198
0000d0 53 d9 38 3b 99 dc c3 3c d0 18 9d bb f4 34 31 bc
       0.0028205707 0.0239089 -0.0047942176 -0.010815848
0000e0 2d 4c a9 bc b0 f3 fd 3d e3 19 9e 3a 87 33 51 bc
       -0.020666206 0.12399995 0.0012062158 -0.012768633
0000f0 7a 5e 0c 3d 2e ae cf 3c a2 c2 8d 3b 81 e1 f7 3d
       0.034269787 0.02535161 0.0043261806 0.12103558
000100 ae ff b1 3c 2a 3b 2a 3d d4 b5 70 3d b6 6a 9b 3d
       0.021728363 0.04156033 0.058767155 0.07588713
000110 f6 96 46 3e b8 8a 37 3d ad f0 b4 3d 59 94 9e 3d
       0.19393525 0.044810027 0.08834968 0.07743139
000120 a9 0a 6b 3d c2 f3 30 3e 5a fa e5 bc 31 81 f1 3c
       0.057383213 0.17280486 -0.028073478 0.029480549
000130 48 e7 6a bc 16 ae 17 3e c3 4b 32 bd 22 df 8c bd
       -0.014337368 0.14812502 -0.043529283 -0.06878497
000140 f1 f8 3f 3c 6b 10 c0 3c f2 02 8b bd bb b9 88 3c
       0.011717067 0.023445329 -0.06787671 0.016690126
000150 eb 52 c8 3c b1 70 76 3e 7b 86 ec 3d 5c c1 b4 bd
       0.0244536 0.24066426 0.115490876 -0.08825943
000160 46 7c 29 bd 07 ce 1b be ed 9c 42 3d 19 aa 01 bd
       -0.041378282 -0.15215312 0.047512937 -0.03165636
000170 da db cf bb 8d 18 26 bc 91 18 b6 bd 22 43 3f 3d
       -0.006343347 -0.010137689 -0.088914044 0.046694882
000180 b6 95 61 be 04 93 87 bc 74 28 b6 bc a4 87 b6 bb
       -0.22029766 -0.016549595 -0.022236086 -0.005570369
000190 d4 4a ad bd 79 80 d7 bd f9 3a 87 3e 54 74 99 3e
       -0.08461538 -0.10522551 0.2641218 0.29971564
0001a0 44 c7 96 bd ce ef dc 3e 99 76 a5 3e 5d 3f a6 bd
       -0.07362226 0.43151706 0.32317045 -0.08117554
0001b0 73 df 17 bd 8a fb 7b bd 6f d1 ce bd f8 a9 81 bd
       -0.037078332 -0.061519183 -0.1009854 -0.06331247
0001c0 6e ae fc bd 35 b7 f7 bd 71 4b 3f ba 81 f2 f1 bd
       -0.12337957 -0.12095491 -0.00072973134 -0.11813832
0001d0 c4 59 98 bd 7a 4e 8c bc 7f d3 1c 3e 24 4d 1f bd
       -0.074389964 -0.017127264 0.15315054 -0.038891926
0001e0 3c 5a 05 bc 1c c9 6a 3e 81 1b 12 3e 4a 82 45 bd
       -0.008139189 0.2292828 0.14268304 -0.048219956
0001f0 50 7a 3a bd a5 a1 cd bd c7 c6 a7 3d 29 72 c7 3d
       -0.045526803 -0.10040597 0.08192211 0.09738571
000200 5f e4 0e bc 2a 93 45 3e 8d c1 4a 3e 54 9b b0 3d
       -0.00872144 0.1929442 0.19800396 0.086233765
000210 86 9b a6 3d 6d 09 35 3d f4 f5 14 3d c0 55 7e bd
       0.081351325 0.044198442 0.03636737 -0.062093496
000220 bb f8 57 3d de 80 77 bd 1d 09 0a bd af fe 5a 3e
       0.052727442 -0.06042563 -0.033700097 0.21386217
000230 34 8d 12 3e 4a 36 b6 bd 94 cd 06 bd d5 cf a0 3d
       0.14311677 -0.088970736 -0.0329109 0.07852141
000240 90 a1 a9 be 09 f4 42 be ef 73 2a bf 09 2c b1 be
       -0.33131075 -0.19038405 -0.6658315 -0.3460391
000250 92 b5 48 bd f7 10 a9 be 8c 62 01 bf d7 39 1d 3e
       -0.049001284 -0.33020756 -0.50540996 0.15354095
000260 e3 52 85 b8 6e 69 aa 3c 89 8c 0a 3c a6 f9 df bb
       -6.357373e-05 0.020802226 0.008456358 -0.0068351803
000270 ff 83 56 3d 7b 84 3d 3d a1 65 28 be 94 29 0b bc
       0.052371975 0.04626892 -0.16445018 -0.0084938
000280 32 3b d3 3d f4 b1 05 3c 49 73 30 bd b1 52 f7 3c
       0.10314025 0.008160103 -0.043078694 0.030190798
000290 1d c9 83 3d 2e 1b 71 bd 97 f8 5b 3d 7a 6f 86 3d
       0.06434844 -0.05886381 0.05370387 0.06564231
0002a0 17 a3 bd bd 76 08 b1 3d d5 0c e2 3b 7a fa ab 3d
       -0.092596225 0.08644192 0.0068985024 0.08397384
0002b0 f3 47 bb bd ad a4 b4 3c d8 54 1e be 14 c8 44 be
       -0.091445826 0.02205118 -0.15462053 -0.19216949
0002c0 0f 0b 8c 3e c4 10 cf bd 31 c5 ff bc 6b 2c 93 bd
       0.27352187 -0.1011062 -0.031221958 -0.071862064
0002d0 a4 db 84 bc cc aa ff 3d 68 df ab 3d fb 8d cf 3c
       -0.016218014 0.12483749 0.08392221 0.025336256
0002e0 81 28 d0 3d 88 19 4a 3e d9 2d 8c 3d 4c 03 c9 bb
       0.101639755 0.19736302 0.06844682 -0.006134426
0002f0 0e 43 0a 3c d0 89 2b 3d 83 00 14 bd a5 38 98 bd
       0.008438839 0.041879475 -0.0361333 -0.07432679
000300 6a c4 bf bd f2 8e 47 3c 65 6f 0b bc 3d 1e e0 bd
       -0.09363635 0.012180077 -0.008510445 -0.109432675
000310 72 aa 80 3d a4 6d d5 bd bd ed ee bb a1 45 ad bd
       0.0628251 -0.10421303 -0.007291524 -0.08460546
000320 d6 8d 2b 3b e6 fa 4e be bd 87 27 bc 40 08 cd bd
       0.002617707 -0.20212898 -0.010225234 -0.10011339
000330 de ec c3 bd f9 8f e0 bd 11 74 62 3d 8c 70 12 3c
       -0.09566663 -0.109649606 0.05528647 0.008937966
000340 12 70 a4 3d 2c 1e c8 3d 36 b0 95 3c 63 14 10 3c
       0.08029188 0.0977138 0.0182725 0.008793923
000350 d5 f4 d3 bd 6f f8 ec bc 16 2c ab 3c 68 2b 5b bc
       -0.103494324 -0.028927056 0.020895045 -0.013377048
000360 c2 8e 86 bc 0f 18 17 be bc ce a3 bd af 86 fe bc
       -0.016425494 -0.14755271 -0.07998416 -0.031070082
000370 0a 15 72 bd b4 bb c2 bc 4d 96 fe 3c 4c a0 33 bd
       -0.059102096 -0.023771144 0.031077528 -0.043854043
000380 f3 44 40 3c 3d 39 15 3d 7c aa 8a bd b0 45 06 3d
       0.011735189 0.03643154 -0.067707986 0.032781303
000390 75 cc cf bd ab 3f c2 bd b7 f7 b9 bd ab 98 37 bd
       -0.10146419 -0.094848 -0.09080451 -0.04482333
0003a0 c1 86 af 3a aa ed 62 bd a0 ed c4 3d af e1 95 3d
       0.00133916 -0.055402435 0.09615636 0.07318436
0003b0 75 f9 9f 3d f4 f3 b4 3d e0 84 f1 3c dc 8d 3a bd
       0.07811252 0.08835593 0.029482305 -0.045545444
0003c0 0f e9 d1 3c 55 33 f7 bd 61 e1 b6 bc 16 3f 96 be
       0.025623826 -0.12070338 -0.022324266 -0.29345006
0003d0 63 a6 03 bf 11 e8 d9 be 41 54 fa be 93 2d f3 be
       -0.5142576 -0.42559865 -0.48892406 -0.47495708
0003e0 5c 86 c4 be da 27 f6 be 88 bb 1f be 18 d8 22 be
       -0.38383758 -0.4807728 -0.15598881 -0.15902746
0003f0 39 52 49 3d 2b 20 3c 3d 35 31 c0 3d 17 eb 13 bd
       0.04915068 0.045929115 0.093843855 -0.03611287

vd.fusion.net2.bias f4 [16]
000000 d4 9e aa 3c 7f 18 a6 3d 0f e0 a8 3c c8 39 ef bc
       0.020827688 0.08110141 0.020614652 -0.029202357
000010 e2 cc 43 3c 96 0c 09 3d 08 cb 19 bd 24 94 35 39
       0.011950703 0.03345927 -0.03754714 0.00017316692
000020 22 5b 91 3d d7 e4 d5 3d 64 8d fd 3d 6e d7 df bc
       0.0709746 0.10444038 0.12380484 -0.027324405
000030 38 01 a8 3d b0 22 f7 3c 59 a1 11 bc 6a a7 c2 3d
       0.082033575 0.030167907 -0.008888566 0.09504588

vd.fusion.net3.weight f4 [1, 16, 3, 3]
000000 dd a6 f1 3c 32 7c 68 bc 0f 11 08 3e 02 9e 67 3d
       0.029498512 -0.014189767 0.13287757 0.056547172
000010 f8 53 06 3e 66 eb 09 3d f1 2b b7 bd ff 7e fc bd
       0.13117969 0.03367176 -0.08943928 -0.1232891
000020 fa 7d bf bd 40 99 e9 bd 4a 97 47 3b 73 50 15 bd
       -0.093502 -0.11406183 0.0030455166 -0.036453675
000030 09 30 45 be 20 57 02 be f1 81 23 bd 0c 91 1a be
       -0.19256605 -0.12728548 -0.039918844 -0.15094393
000040 d0 94 14 bd 03 b6 80 3b fb c1 b1 3d c8 a0 e6 3d
       -0.03627473 0.0039279475 0.08679577 0.11261135
000050 b3 6d 2c 3d 45 b6 81 3d 1c 6e c8 3e 2a df 20 3e
       0.042096805 0.06333593 0.39146507 0.1571013
000060 0c 86 c7 3d b0 78 8e 3d d9 95 e2 bd ef 73 a3 be
       0.09742364 0.06956613 -0.110637374 -0.31924388
000070 2a 55 85 be 4e 75 ce be 05 5f 60 be a4 07 b8 bd
       -0.26041538 -0.4032387 -0.21911247 -0.08985832
000080 0c d1 64 be 4f a3 56 be 41 8c b9 be d0 b9 5d be
       -0.2234537 -0.20960735 -0.36239818 -0.21652913
000090 fa c4 39 bd b4 e2 06 bd 9c 97 38 bd 19 77 4c be
       -0.045353867 -0.032931045 -0.04506646 -0.19967307
0000a0 6c ee 9b be 3c 8c 7b be f3 74 74 bd cd f5 b9 bd
       -0.3045534 -0.24565214 -0.059681844 -0.09080086
0000b0 84 8e ec bd d1 3e 84 be da 8b 27 be 19 43 6c be
       -0.1155062 -0.25829175 -0.16361943 -0.2307247
0000c0 1e ef 92 be ff 08 a0 be c1 d8 95 be b7 4e 9a be
       -0.28698057 -0.31256863 -0.29266933 -0.3013818
0000d0 3f 48 5f be 52 d6 82 be 37 20 0a 3d af bc dd bc
       -0.21804903 -0.25554138 0.03372213 -0.02706751
0000e0 1f 2b a3 3d 42 66 f3 3d 2c 7e 6b 3e 1b 71 b2 3d
       0.07967209 0.118847385 0.2299735 0.087129794
0000f0 f8 95 82 3d eb f8 2b 3d d1 be 05 bd 9f 62 15 3d
       0.063762605 0.041985434 -0.03265268 0.036471006
000100 b1 ca 9f 3a 15 01 73 3d e1 c8 3f 3e f1 ca 3c 3e
       0.0012191144 0.059327204 0.18728973 0.18436791
000110 75 ff d6 bc 12 17 84 3d 24 88 ea 3d 7e 8e 3f 3d
       -0.026244858 0.06449713 0.11451748 0.04676675
000120 9d cb d2 3b 44 db 11 3e 9b 50 01 3e 93 1d 81 bd
       0.006432964 0.142438 0.12628405 -0.06304469
000130 b9 40 16 3e 91 48 89 3e e3 64 be bd 93 3d c7 3d
       0.14673127 0.26813176 -0.09296586 0.09728541
000140 08 f9 12 3e 34 81 50 be d8 f8 0e be 23 b9 41 be
       0.1435281 -0.20361787 -0.13962114 -0.1891828
000150 75 39 a2 bd f7 b9 e6 3e 22 88 e2 3d 58 46 37 bd
       -0.07921115 0.45063755 0.110611215 -0.04474482
000160 a4 a6 79 3e 35 a8 ad 3c 28 79 d1 3d 34 bb 64 3e
       0.24379975 0.021198371 0.10228187 0.22337037
000170 89 80 da bb 66 91 1b 3e 4d aa ca 3e 44 59 c6 3d
       -0.0066681546 0.15192184 0.39583054 0.09684995
000180 77 0d ad bc c9 73 ca 3d 89 df fa 3c a5 67 86 bc
       -0.021124585 0.098853655 0.030624168 -0.016406843
000190 23 5c a2 be 31 23 47 be 73 ee 38 be 84 f8 ef be
       -0.3171092 -0.19447018 -0.18059711 -0.4686929
0001a0 49 3c 81 be 01 5e 56 be b1 d3 8c be ab 14 86 bd
       -0.25241306 -0.20934297 -0.27505258 -0.06546911
0001b0 ee 35 d3 bc 52 23 49 3d 22 c3 da 3d f0 c3 cc 3d
       -0.025782552 0.04910595 0.1068175 0.099983096
0001c0 9a f0 07 3e a5 fc 3b 3c 20 ba c7 ba 5b b1 80 3d
       0.13275376 0.011473809 -0.0015237965 0.06283828
0001d0 87 f0 ae 3d ad ac c5 bc 9d 17 06 3e b6 26 a0 3d
       0.08541971 -0.02413019 0.13094945 0.078198835
0001e0 04 91 29 bc 8e 2d 34 3e e4 69 e9 3d 04 3b 65 bd
       -0.010349516 0.17595503 0.1139715 -0.055964485
0001f0 03 b3 91 3d 9f fd 13 bc 60 5d 64 bb 74 92 0c 3e
       0.07114222 -0.009032636 -0.0034845695 0.13727742
000200 c6 7c 2f 3d 5f cd ed 3d 77 b4 ce 3d 94 c9 b3 3d
       0.042843603 0.11611437 0.10093015 0.08778682
000210 bd a7 b8 3b 43 0f 0d 3e ac 41 cb 3d dd 9d d5 3a
       0.0056352303 0.13775353 0.09924635 0.0016297657
000220 99 da 32 bc 6e 26 19 be d1 35 0e bd fd 9d 0b bd
       -0.010916376 -0.14956066 -0.034719292 -0.034086216
000230 d4 b1 53 be f4 fc 83 bd 45 9d 89 bd 09 0f cc bd
       -0.20673305 -0.06444731 -0.0671945 -0.09963805

vd.denoise.net1.weight f4 [16, 21, 3, 3]
000000 6b a0 91 bc 0f 98 62 3d be a5 c5 bc 9d 29 28 bd
       -0.017776689 0.055320796 -0.024126884 -0.04105531
000010 ac 37 e8 3c 5d d7 2e bc 51 25 61 bd d1 2d 9c 3d
       0.028346859 -0.010671464 -0.05496723 0.07625926
000020 08 4b 33 3c a9 82 b3 bd bc cf 92 3b 67 41 bc 3c
       0.010943182 -0.08765156 0.0044803303 0.022980405
000030 d4 d0 00 3e 02 24 a8 bd 5f a9 8f 3d 4a 9a 37 3d
       0.12579662 -0.08209993 0.07014727 0.044824876
000040 9d 91 3a be f1 45 e7 3d 75 9e b2 3d 40 30 19 bd
       -0.1821961 0.11292637 0.087216295 -0.03739953
000050 e4 f5 13 bd 9f 2f 7f be 83 99 09 3e 0d 40 68 bd
       -0.03612317 -0.2492051 0.13437466 -0.05670171
000060 fb 4d 03 be 35 87 5f 3e c6 12 e6 bd 65 47 15 3d
       -0.12822716 0.21828921 -0.112340495 0.03644504
000070 ac 95 64 bd 96 56 81 bb 2a 36 e6 3d 70 be c8 bd
       -0.0558068 -0.0039470894 0.112408 -0.09801948
000080 63 1c 36 bd d4 52 09 3e d6 f1 46 bd c2 d2 a7 bd
       -0.044460665 0.13410503 -0.048570476 -0.08194496
000090 af da f6 3c 45 a8 08 bd 2f ba 2e 3a 25 9c 7c 3d
       0.030133573 -0.0333636 0.0006665317 0.06167235
0000a0 41 6d da 3b d4 5e 9f bc 08 0c 3d bd e2 ea 07 3d
       0.006665856 -0.019454397 -0.046154052 0.033182986
0000b0 7a 8d 0f 3d 5c 47 f1 3b ad 48 10 bd 70 87 c6 3c
       0.035047032 0.007363243 -0.03522556 0.024234504
0000c0 06 f4 5a be ac a7 cd 3d f6 31 86 bc 76 60 37 3e
       -0.2138215 0.100417465 -0.016381245 0.1790789
0000d0 2c 87 43 be ec 05 73 bd b8 40 8c 3c f6 14 a8 bb
       -0.19094533 -0.05933182 0.017120704 -0.005129452
0000e0 0e 54 32 3b 1b 64 7e 3e bb c7 fd bd d9 68 5f bd
       0.0027210745 0.24842875 -0.12391611 -0.05454335
0000f0 36 3e 79 be 4f 6d 5b 3e 83 3a e7 3d 79 ce 16 bd
       -0.24340138 0.21428417 0.11290457 -0.036818
000100 85 01 7a 3d 01 4b b7 bb 49 d2 16 be 6b 8d ee bc
       0.061036605 -0.005593658 -0.14728655 -0.029120168
000110 e6 6c 35 3d e1 d0 1d 3e 66 5e 69 bd ff 9b a6 bd
       0.044293307 0.15411712 -0.05697479 -0.08135223
000120 95 c0 ac bb 28 6e 46 bc be f5 a3 3b 17 c4 32 bd
       -0.005271981 -0.012111224 0.00500366 -0.043644037
000130 f2 a5 94 bd e4 b8 20 3d bf a3 b7 3c 7a 63 07 be
       -0.07258214 0.039238825 0.022416947 -0.13221541
000140 da fc 10 3d 03 21 29 3b d2 9d 90 bc e6 c5 66 bb
       0.035397388 0.002580703 -0.01765338 -0.0035213172
000150 df 3b 03 be 20 ba 68 3e cd 13 46 bd c6 e5 a8 bb
       -0.12815808 0.22727251 -0.048358727 -0.0051543443
000160 1d 15 a7 3d 8e 08 f5 bb ce ad be b9 f5 db 1b bc
       0.08158324 -0.0074778264 -0.0003636912 -0.009512891
000170 0d cb 0d 3d 70 b9 6e 3d 49 c7 96 be de 4e c7 3d
       0.034617472 0.058282316 -0.29448918 0.097318396
000180 59 ac 49 3b 04 80 73 be c3 c8 d8 3d 88 2e af 3c
       0.0030772893 -0.23779303 0.10585167 0.021384493
000190 aa b1 e8 bb 4b 2a cd bb 4d 81 dc 3d a6 b8 f3 3d
       -0.0071012573 -0.006261145 0.1076685 0.11900453
0001a0 a8 67 9e bd ca 33 9e 39 88 79 81 3e 77 d1 c5 bd
       -0.077346146 0.00030174694 0.25288033 -0.09659093
0001b0 61 9f 3b bb 10 e6 a7 bb e6 42 9c bb ec f1 ba bc
       -0.0028628933 -0.005123861 -0.004768717 -0.022820435
0001c0 ae 3a 87 3d 07 99 24 bc 57 38 b8 3b 8f e2 fe bc
       0.06602989 -0.01004625 0.0056219506 -0.03111389
0001d0 2a 86 95 3c a8 7b 1f bc 1e 2b 30 bb ff 5d ba 3b
       0.018252451 -0.009734072 -0.0026881169 0.0056874747
0001e0 70 53 28 3c ed 2c 8b bd 43 aa 69 3c b8 77 d4 bb
       0.010273799 -0.06795678 0.014261785 -0.006483998
0001f0 ea d7 b1 3d a8 8c 17 bd 91 5a 88 3c cc 56 db ba
       0.086837605 -0.036999375 0.016644748 -0.0016734242
000200 64 c2 21 bc 97 ff 08 bd 96 08 e9 3d a4 f3 c5 bc
       -0.0098730065 -0.033446874 0.11378591 -0.024164028
000210 8b 23 34 3a 24 29 f5 bd 05 23 7d 3d 47 ee b5 bb
       0.00068717514 -0.119707376 0.061800975 -0.0055520865
000220 d0 84 34 bb ef 61 ed 3b 50 4c 69 3c 8a 8b 59 bd
       -0.0027544983 0.0072443406 0.014239386 -0.05311159
000230 fb e4 a3 3b bf d4 0e 3d 35 0d 49 3d 19 2c 14 bd
       0.005001662 0.03487086 0.04908486 -0.036174867
000240 51 b2 48 bc 59 ee 72 bc d3 87 3f 3c 44 ae a3 bd
       -0.012249545 -0.014827334 0.011690098 -0.07992223
000250 5b 6d ab 3c f6 a1 6f 3d 2d e0 05 bd d1 1f cf bc
       0.020926168 0.058504067 -0.032684494 -0.025283726
000260 dd d8 f8 3c fd d1 e8 ba f5 d1 42 3d 10 3e 04 bb
       0.030376846 -0.0017762777 0.047563512 -0.0020178594
000270 f8 f4 4b 3e ae 02 bf bd d8 91 0f be 8c 12 e6 3d
       0.19917667 -0.09326683 -0.14020479 0.11234006
000280 50 d0 20 be 2a 4e 6b bd 99 67 d6 bc 13 fe 1f 3b
       -0.15704465 -0.05744759 -0.026172446 0.0024412915
000290 3a 73 84 3c 9b 63 95 be 81 7f cd 3d 47 82 35 3e
       0.016168226 -0.29177555 0.10034085 0.17725478
0002a0 9c 2c 4b be 44 84 6d 3e 8e f6 15 3e b5 52 b0 3c
       -0.19841236 0.23194987 0.14644834 0.021523813
0002b0 8b 8a e9 bc ea 65 c1 3c e3 a7 16 3e 9b 55 83 bb
       -0.028508445 0.023608167 0.14712481 -0.0040080077
0002c0 f5 f7 56 bd 0d 59 0f 3e b7 38 95 bd 2f b2 65 bd
       -0.052482564 0.13998814 -0.07286208 -0.056078132
0002d0 71 62 03 3e 23 f4 a6 3e 23 82 97 3e e5 99 ee 3e
       0.12830521 0.32608137 0.29591474 0.46601787
0002e0 57 b8 29 3f df 45 28 3f 1a f0 31 3f 69 f1 64 3f
       0.66296905 0.65731615 0.6950699 0.8943086
0002f0 a2 e3 7e 3f cc 33 9b 3c 22 83 9b bd 67 b2 77 3c
       0.9956609 0.018945597 -0.07593371 0.015118218
000300 d9 94 eb bc f1 c9 02 3d 46 4f 93 bd 83 54 0d 3b
       -0.0287575 0.031930868 -0.071928546 0.0021565265
000310 95 74 82 3b c7 a4 34 3c 28 88 2e 3c 6e 13 5b bd
       0.003981183 0.011025614 0.010652579 -0.053485326
000320 f4 b8 81 3c b7 7f 94 bd 6c 26 cd 3d a9 61 9a 3d
       0.015835263 -0.07250922 0.10017094 0.075381584
000330 97 1f 9a 3c 94 d4 f0 3c 9f dd 69 bc 37 4c 46 bb
       0.018813891 0.02939824 -0.01427403 -0.003025783
000340 3b 3a 3d 3e 45 9a 88 3d 9f 57 13 3e 4f 61 3c be
       0.18479244 0.066700496 0.14388894 -0.18396495
000350 fa 97 6b bd 56 0f 32 bd b0 25 b1 39 e7 e8 f8 3d
       -0.057517983 -0.043471657 0.0003378815 0.121537976
000360 34 8a fa 3c 26 54 38 3d dc d4 28 3d f8 76 8d bc
       0.030583479 0.045002125 0.041218624 -0.017268643
000370 2c c3 d3 3d e2 d7 84 3c 55 28 b9 bc 21 99 15 bd
       0.103399605 0.016216222 -0.02260224 -0.03652299
000380 15 06 e5 3c 64 84 f1 bb 7d 0b c4 3d 43 9c 1b 3e
       0.027957002 -0.0073705185 0.09572504 0.15196328
000390 56 58 59 bd 30 5b af bd c9 68 8c bd ef 48 bd ba
       -0.05306276 -0.085623145 -0.06855924 -0.0014441292
0003a0 09 1f d2 bc 63 14 fa 3b 5f 89 81 3e c9 b7 4e be
       -0.025649564 0.007631825 0.25300118 -0.20187296
0003b0 6a 3c 2c be 1f a1 74 be 19 3e 10 3e 0f 09 dc 3e
       -0.16819921 -0.23889588 0.14086188 0.4297566
0003c0 ad 5f 26 bd 11 4c 45 bd c2 92 81 be 53 3f 72 be
       -0.040618587 -0.048168246 -0.2530728 -0.23656969
0003d0 98 d1 6e 3e a7 e3 8d 3e bf e9 8a 3e 99 84 86 be
       0.23322141 0.27712747 0.2713146 -0.2627304
0003e0 2a 97 07 bf 91 80 9d 3b 78 7d 70 3d 2b 67 73 3e
       -0.52965033 0.004806586 0.058713406 0.23769824
0003f0 48 db bb 3d 12 dd 6b be b5 93 6c be 4f 78 49 bc
       0.09172684 -0.2303355 -0.23103221 -0.01229675

vd.denoise.net1.bias f4 [16]
000000 4c 02 89 3b 4b 2f 00 3d 7d f9 69 3d 8a 3e 9a 3c
       0.004181182 0.031295102 0.057122696 0.01882865
000010 dc 6e 87 3d 24 d0 b2 3b b6 89 45 3d 31 51 8f bb
       0.066129416 0.005456941 0.048227035 -0.0043736924
000020 4b 22 7c bd 7c 71 d2 3b 64 6b f1 bb 70 f6 57 3d
       -0.06155614 0.00642222 -0.0073675383 0.052725255
000030 76 c3 30 3d 24 eb 87 38 c6 3c 07 3d f0 56 c6 3b
       0.043155156 6.4811e-05 0.033016942 0.006052844

vd.denoise.net2.weight f4 [16, 16, 3, 3]
000000 36 06 a3 3d d4 7a b0 3d 72 9d 0e be c0 46 9d 3d
       0.07960169 0.086171776 -0.13927248 0.0767951
000010 b1 e7 8c 3d 53 22 d4 3d d7 98 ce 3c c2 c7 cf bc
       0.06880129 0.10358109 0.025219364 -0.025363807
000020 f0 d7 c1 3b b1 b0 bc 3c 6f 8b 5d bb a2 89 75 bb
       0.0059156343 0.023033472 -0.0033805033 -0.0037466069
000030 36 5f 75 3d 4f 0e 8b ba 59 46 28 3d 93 6c f7 3b
       0.059905253 -0.0010609123 0.041082714 0.007550785
000040 30 c5 51 bd 80 3b b2 3d 54 d6 ad 3c 73 6d 10 be
       -0.051213443 0.08702755 0.021220364 -0.14104252
000050 9e b4 b5 bd ea cf a0 3d 9d 56 ea bd 3b 7e 8f bc
       -0.088723406 0.078521565 -0.114423014 -0.017516246
000060 5f 98 7f bc c2 8e 7a 3d 83 99 b4 bc ac a4 ee bc
       -0.015600293 0.0611713 -0.022045856 -0.029131256
000070 49 25 39 be d2 2f fa bd 34 99 6e bd b3 73 8b bd
       -0.1808063 -0.12216152 -0.058251575 -0.06809177
000080 ab 16 9f bd 22 86 55 bd c9 8b c2 bd 0c 4e ee 3d
       -0.077679954 -0.052129872 -0.09499318 0.1163598
000090 9b a4 26 bd f9 a3 61 3d de f5 d1 3a 50 dd a4 bc
       -0.040684324 0.055088017 0.0016018709 -0.020125061
0000a0 a3 3d 14 bd f8 1c 80 3d 08 b3 0d bd 7e 6b b9 bd
       -0.036191594 0.06255525 -0.034594566 -0.09053706
0000b0 c5 05 7b bd 64 d6 3a 3d d3 ea da bc a6 9d 77 3c
       -0.0612848 0.045614615 -0.026723301 0.01511327
0000c0 53 61 fa 3d 3a 00 9e bd 99 be a1 bb 92 4d 4a 3c
       0.12225594 -0.07714887 -0.004936051 0.012347596
0000d0 f4 6a 69 3d 99 ec cf ba 61 8b a5 bc b4 e7 19 3e
       0.056986764 -0.0015863358 -0.020208063 0.15029794
0000e0 b5 8b 5b 3e 8c e8 01 3d 94 68 18 3e f0 18 48 bd
       0.21440013 0.031715915 0.14883643 -0.048851907
0000f0 04 b7 ee bb fd b5 a2 3d 1f 2c ea 3c 5e a1 63 bd
       -0.0072850008 0.07944868 0.028585492 -0.055573814
000100 a4 b8 0a 3d 73 63 30 3d fa d7 9a bd f1 6a 85 bd
       0.033867493 0.043063592 -0.075607255 -0.06514538
000110 f5 ad ae bb f4 e3 55 bd 96 ba dc bc 9c 4e ad 3c
       -0.005330796 -0.052219346 -0.02694444 0.021155648
000120 3b 17 2e bc 77 33 9c 3d f8 46 1f 3d 47 5c 8d 3d
       -0.010625656 0.07627004 0.03888604 0.06902366
000130 4e e0 56 3d 9a 57 40 3c f3 84 80 3d 8f a3 10 bb
       0.052460007 0.011739636 0.06275358 -0.0022070145
000140 de 64 9f 3c c8 d3 ac bc b4 68 c2 bd bc cc 95 3b
       0.019457277 -0.021097079 -0.09492627 0.0045715254
000150 4a 10 e2 ba a5 24 30 3c e4 6e 17 bd 95 d8 d6 3c
       -0.0017247286 0.010750924 -0.036970988 0.026226321
000160 70 ac cc 3d 4b 28 11 3d 5c 41 e4 3c d6 17 39 3d
       0.09993827 0.035438817 0.027863197 0.045188747
000170 9d 81 79 bd 3d 7b c1 3c bd 44 01 bd 96 f3 51 3d
       -0.060914624 0.023618335 -0.031559695 0.051257692
000180 a8 5c 7a 3d 1e fa 45 bd cb 6d 28 3d 01 20 0f 3e
       0.06112352 -0.048334233 0.04112033 0.13977052
000190 66 47 81 bc d0 5e ca 3d 8f a3 81 3d 10 64 9f bd
       -0.015781116 0.09881365 0.063300245 -0.07782757
0001a0 e0 85 8a bd 5f 3a b6 3c 08 d1 69 3d a3 17 7e 3b
       -0.06763816 0.02224463 0.057084113 0.0038771413
0001b0 b4 b7 80 3d 4e b9 c5 bb 05 1a 63 3d 64 bf 26 3d
       0.062850386 -0.006034053 0.055444736 0.040709868
0001c0 15 ab e7 bd c8 c1 57 bc dd 58 0b 3d a3 99 41 bd
       -0.11311928 -0.01316876 0.034020294 -0.04726566
0001d0 24 05 0a bd 44 37 9c 3b 33 e6 8f bb 4f 01 e5 bd
       -0.03369631 0.0047673304 -0.0043914556 -0.1118189
0001e0 e5 a8 e8 bb f1 9a 0b 3c 7f 09 84 bd a4 94 98 bd
       -0.007100212 0.008520828 -0.06447124 -0.07450226
0001f0 bf 26 15 bd 39 21 99 3d 04 51 be bc 35 b5 74 bd
       -0.036413904 0.0747704 -0.02323199 -0.059743125
000200 88 92 2e 3c fb a7 89 bb 64 a6 7d bc ee 1f 18 bd
       0.010655053 -0.004200933 -0.015481565 -0.037139826
000210 6e 9c 95 bb c7 38 0e bd 77 45 0e 3d d5 0e f7 3d
       -0.004565767 -0.034722116 0.034734216 0.12063376
000220 73 e1 f2 3d 53 7d 02 3e 4b 0c a7 3c 97 31 22 3d
       0.11859407 0.1274312 0.020391604 0.039598074
000230 33 15 22 3c f8 76 8f bd a4 fb c8 3d b3 c5 77 bd
       0.00989275 -0.07005113 0.09813622 -0.060491275
000240 e0 10 11 bd cb a9 94 3d 82 4c 8c 3d fc 41 a5 bb
       -0.035416484 0.07258948 0.0685053 -0.0050432663
000250 57 f1 3a be a9 f9 90 bd a1 9b 40 bc b4 f1 eb 3c
       -0.18256126 -0.07078869 -0.011755855 0.028801776
000260 42 a7 0d 3d 69 98 67 bd 46 b8 8d bc c2 cb d1 bc
       0.034583338 -0.056541834 -0.017299782 -0.025609855
000270 c4 a8 ca bd 40 87 48 be ca 97 08 3d 06 0d 82 bd
       -0.09895471 -0.19582844 0.033347882 -0.0635014
000280 a7 ca 0f bd 6f 74 11 bd 0e 66 77 bc 3a 25 f8 3c
       -0.035105374 -0.03551143 -0.015100015 0.030291189
000290 c1 9d 86 bd 89 8b 82 bd 8d 44 2b 3d e5 a7 32 bd
       -0.06573058 -0.063742705 0.041813422 -0.043617148
0002a0 24 1e 85 bd 63 00 eb bb 43 15 e4 ba c9 6f 8d bd
       -0.064998895 -0.007171677 -0.0017401356 -0.06906087
0002b0 1a 8d e8 bd 06 7b 5e bd 1c b1 2f bd 60 c1 1f 3d
       -0.11355038 -0.054316543 -0.042893514 0.039002776
0002c0 7a fb 13 3c f6 0a 07 bd 96 8c b3 bd 34 b6 22 bc
       0.009032125 -0.032969438 -0.08767049 -0.009931136
0002d0 27 08 e2 3c 96 a5 c1 bc 2f 77 87 bb 48 fb 45 3d
       0.027591778 -0.023638528 -0.004134081 0.048335344
0002e0 2c ef b8 3c af ca 84 3d f0 fa dc bd 3a e0 8c 3c
       0.022574984 0.06483971 -0.1079005 0.017196763
0002f0 49 2d 91 bc 6b 6e 9c bb 3e 01 7a 3d 77 40 32 bc
       -0.017721789 -0.004773905 0.06103634 -0.010879627
000300 cf 5d 15 be 3a 3a 74 3c ce f1 dd bd 22 d2 0b be
       -0.14586566 0.01490646 -0.10837136 -0.13654378
000310 90 e6 b8 bd f5 47 a1 bd 40 2a 28 3d 24 dd 32 3d
       -0.09028351 -0.07875053 0.041055918 0.043667927
000320 72 6d f2 bc e3 9d 78 3c 6a 37 c1 bc d2 f1 56 3c
       -0.029593203 0.015174362 -0.023585994 0.013119178
000330 b1 8c a7 3c 01 bd 7f bc 34 04 b7 bc de 99 91 3d
       0.02045283 -0.015609027 -0.022340871 0.07109426
000340 d5 bb 36 3d 57 7d c1 3c 7e 74 aa 3d 70 54 16 3e
       0.044612724 0.023619337 0.08323 0.14680648
000350 d2 bf f1 3d d1 d7 48 3c 36 4b bd bb d5 d8 9a 3d
       0.11804165 0.012258486 -0.005776788 0.07560889
000360 db b8 d0 3a 6e d1 f9 bb c2 ab 45 3d 3e 0a e3 bc
       0.0015924232 -0.007623843 0.048259504 -0.027714845
000370 15 18 a3 bc 10 8a 03 be 1b 59 70 3c d0 cf f7 bc
       -0.019908944 -0.12845635 0.014669682 -0.03025046
000380 c7 7a b4 bd 50 35 4b bc ae 5c 39 3c f8 82 5d bc
       -0.088124804 -0.012402847 0.0113136 -0.013519995
000390 d4 c6 e9 bc 34 66 49 3d 3e 8d 51 bd 4c 90 d1 3d
       -0.028537191 0.049169734 -0.05116009 0.102326006
0003a0 5f 1f 32 bc d3 7b 1e 3c e4 b3 07 3d d6 7a b9 3d
       -0.010871737 0.009673077 0.03313054 0.09056632
0003b0 31 f5 86 3d 55 c3 4d 3d 85 9b 09 bd 57 1f 02 bd
       0.06589735 0.05023511 -0.03359558 -0.03176817
0003c0 10 c7 44 3d 41 d7 ab 3c 93 fa 73 3d 8c d6 ee 3c
       0.048041403 0.020976664 0.059565138 0.029155038
0003d0 3a e5 d7 3d ff c2 72 3d e3 a6 b7 3d 6b 38 bb 3d
       0.10541768 0.059267994 0.08967378 0.0914162
0003e0 c4 3b b0 3d b5 e3 ad 3d fc 85 0b bc a0 34 a6 3c
       0.086051494 0.08490697 -0.008515831 0.020288765
0003f0 6a fa 7b bc 22 71 64 bd d5 f0 08 bb 9f 33 97 3a
       -0.015379528 -0.055771954 -0.00208955 0.001153577

vd.denoise.net2.bias f4 [16]
000000 6c b4 46 3d e8 75 98 3d 80 20 7f 3d f9 57 a0 3c
       0.048511907 0.07444364 0.062286854 0.019573199
000010 35 ab 95 3d 6c 3e 90 3c 00 fb 8b bb 81 ae 79 3d
       0.07308046 0.01760789 -0.004271865 0.060957436
000020 ab d0 04 3c 3c 7e e0 3d 47 bc b2 3c 61 d9 71 bd
       0.008106391 0.10961577 0.021818293 -0.0590452
000030 cf d2 bf 3c a4 a3 a7 3c 08 3e be bc f3 77 0b 3c
       0.023415951 0.020463772 -0.023222938 0.008512485

vd.denoise.net3.weight f4 [16, 16, 3, 3]
000000 d7 8d 01 bb 56 60 3d 3c 12 08 49 3c 85 15 0d bc
       -0.001976838 0.011558613 0.0122699905 -0.008611088
000010 f6 ff 6c bd a0 77 d7 bc 56 06 cb bc 3d 4d 2a 3c
       -0.05786129 -0.026302159 -0.024783295 0.010394392
000020 76 83 4c bb 69 64 88 bc 6a 62 ad 3d 7c 66 70 3d
       -0.0031206287 -0.016649442 0.084660366 0.058691487
000030 26 f8 75 3d 71 c3 47 3e e8 45 05 3e 58 27 21 bc
       0.060051106 0.19508149 0.13014948 -0.00983604
000040 db 5d 0a 3d b8 75 80 3d 8c 17 18 3d 6d c9 ee 3c
       0.033780914 0.06272453 0.03713183 0.029148782
000050 c3 66 a7 3d 9a 73 f8 3d 5e 3b ce 3d 2b 4e 52 3d
       0.08173897 0.12131424 0.10069917 0.051344078
000060 4e 76 0b 3d e5 e1 87 bc e8 95 78 bc 3b f3 80 3c
       0.03404837 -0.016587207 -0.015172459 0.015740981
000070 0e c7 a4 bd cd ed d7 3b 1c 6b 4c bd 68 3f 91 3d
       -0.08045779 0.0065896274 -0.049906835 0.07092172
000080 df 40 7d bd 51 21 6a 3d 94 22 dd 3d 0b f3 47 bb
       -0.061829444 0.05716068 0.10797611 -0.0030509855
000090 61 d6 84 bd 28 77 71 bd fa 87 fd bc 70 34 c9 bd
       -0.06486202 -0.058951527 -0.030948628 -0.09824455
0000a0 d4 9d a0 bd ee 69 ca bd 2f d2 48 bd a3 04 0c bd
       -0.07842603 -0.09883486 -0.04902857 -0.03418411
0000b0 b2 f9 ce bd 69 5c c3 bd c5 15 a0 bd 2f 73 b6 3d
       -0.10106219 -0.0953911 -0.07816652 0.08908688
0000c0 75 72 0d be 97 fa b7 be 98 9d 2b be 91 3f c9 bd
       -0.13813193 -0.35933372 -0.16759336 -0.098265775
0000d0 db bd 92 be 9d 4f c3 bc 7a 81 b6 bd 06 6a 19 3c
       -0.28660473 -0.023841674 -0.089114144 0.009363657
0000e0 87 92 40 bc 68 a1 ee bc ba b0 10 3d 09 f6 f5 3d
       -0.011753685 -0.029129699 0.03532479 0.12009818
0000f0 e3 90 84 3d b7 27 cd 3d c4 a8 64 3e a0 57 e4 bb
       0.064729474 0.10017341 0.22330004 -0.0069684535
000100 ec 42 26 bd ac 7e 02 bd bb 64 72 bd 92 78 f6 bc
       -0.040591165 -0.031859085 -0.059178095 -0.03008679
000110 0f 62 6c 3c 2d 39 a9 3c 55 c0 88 3a 42 7e 96 3d
       0.014427676 0.020657146 0.0010433296 0.073483005
000120 89 cb 4e bd 1f f3 77 bc 3b 01 b4 bd d1 d3 8a bd
       -0.050487075 -0.015133648 -0.08789297 -0.06778682
000130 96 64 91 3c f2 97 aa 3d b1 22 c4 3c 2f 85 9a 3d
       0.017748158 0.083297625 0.023942323 0.07544934
000140 43 8b dc 3b a7 ad b0 bd ce 89 84 3d 19 f7 b5 bd
       0.0067304685 -0.086268716 0.06471597 -0.08885021
000150 13 6f 30 be b0 10 22 3d e8 62 03 be ae f9 0b bd
       -0.17229871 0.039566696 -0.12830698 -0.03417366
000160 9d 77 50 3e 0f ca 1e 3e b6 cd 73 bd d0 8e 16 be
       0.20358129 0.15506767 -0.059522353 -0.14702916
000170 67 39 de bd c1 bf 09 be 6a d0 81 be b8 17 10 be
       -0.108507924 -0.13452055 -0.2535432 -0.14071548
000180 5b ec 90 bd 15 e1 25 bd 15 1d 8d 3b e2 99 8e 3d
       -0.07076331 -0.040497858 0.0043064454 0.069629446
000190 c4 20 2b bb a3 ab c5 3c e3 c9 f9 3d 07 bf b5 3d
       -0.002611206 0.024129694 0.1219671 0.08874326
0001a0 5b 16 a2 3d 03 2d 22 3d 92 0b 77 3d b3 54 91 bc
       0.0791442 0.039593708 0.06031377 -0.017740583
0001b0 31 1c c3 ba 9d 67 cd bd 06 17 8a 3c 52 7e 84 bc
       -0.0014885721 -0.10029528 0.016856682 -0.016173515
0001c0 fd a5 97 bd 84 f0 a3 bd 2a 20 39 bc 0d 67 bb bd
       -0.074047066 -0.08004859 -0.011299172 -0.09150515
0001d0 da 13 07 bd b3 9e b4 ba 29 da 5d bc 29 aa d7 bc
       -0.032977916 -0.0013780206 -0.013540783 -0.026326256
0001e0 65 2f 69 bd f4 0f ad bb 0e 67 8e bd 99 ed 37 bd
       -0.056929965 -0.005281443 -0.0695325 -0.044904325
0001f0 c6 89 9e 3c 2b 9b ef 39 45 a7 60 bd 70 d0 ea bd
       0.019352805 0.00045701241 -0.05484702 -0.114655375
000200 80 f1 5d bd c7 f3 fe bc a4 f4 93 3d fd 60 cf 3c
       -0.05418539 -0.031122101 0.07224396 0.025314802
000210 40 b7 81 bd 8e 12 9c bd b0 a6 92 3c 84 6f 87 3c
       -0.0633378 -0.076207265 0.017901748 0.016532667
000220 a1 d6 f6 3c e1 a9 73 bc 73 5f 5c 3d 73 e2 43 bc
       0.03013164 -0.014872045 0.053801965 -0.011955845
000230 00 0b 8d bc fd 31 98 bc de d0 b1 bd 19 ec 02 3d
       -0.01721716 -0.018578524 -0.086824164 0.03196344
000240 69 0d c8 bc d6 4e 0a 3d 99 54 a1 3c 66 99 08 3a
       -0.024420457 0.03376659 0.01969366 0.00052108464
000250 ce 07 5b 3d 80 cf df 3c 47 78 96 3d fb 8f 86 bc
       0.05347424 0.027320623 0.0734716 -0.016426077
000260 1e fe 7d 3d da 3f 32 bd 63 97 42 3b 70 1c 6a 3d
       0.062009923 -0.043517925 0.0029692284 0.057156026
000270 75 56 7b 3d fc dc e5 3d 5e 57 c1 3c 04 5c bd bc
       0.06136175 0.1122379 0.02360123 -0.023115166
000280 a3 81 bf 3d 23 8c a8 bc a2 c9 80 bd 12 4d 2f 3c
       0.09350898 -0.020574635 -0.062884584 0.010699527
000290 1e 7f 88 3c f0 83 98 bd c9 be a3 bd 5d f8 a5 3c
       0.016662177 -0.0744704 -0.07995374 0.02026003
0002a0 7c cc 45 bd 9a 8c 17 be 72 92 97 bd 8c c0 08 3d
       -0.048290715 -0.14799729 -0.07400979 0.033386752
0002b0 a5 de 98 bc c6 e1 d3 bc 28 ef 67 bd da eb 4c bd
       -0.018660853 -0.025864493 -0.05662456 -0.050029613
0002c0 6d 27 15 bd 00 73 90 3d 50 9a 2d 3d 21 92 92 3d
       -0.036414552 0.070531845 0.042383492 0.07156778
0002d0 71 b9 b0 3a 87 f0 23 3d 27 e7 52 3d 43 86 75 3d
       0.0013483 0.040024307 0.051489975 0.059942495
0002e0 0f 3b 13 3d 92 e9 64 3d 93 e2 11 bc 93 28 8e bc
       0.035944995 0.055886813 -0.008904117 -0.017353332
0002f0 53 f3 ee bd 3d 36 26 bd db b2 93 be bb 15 85 bd
       -0.11667504 -0.04057907 -0.28847393 -0.064982854
000300 ff dc 80 be 9f b3 e5 bd b0 12 b0 3d 4c ad f3 3c
       -0.25168607 -0.11215901 0.08597314 0.02974572
000310 d3 26 33 3e ff 4c 85 3a 30 a5 e1 3d b6 07 64 3d
       0.17495279 0.0010170041 0.11017835 0.055671416
000320 8f 0b a1 3d df 3e 6b 3e d4 d6 21 3e ab 46 86 be
       0.07863533 0.22973202 0.15804607 -0.2622579
000330 3b 04 60 3d b9 02 31 bd eb 6e 2d be 75 18 b9 3b
       0.054691534 -0.043215487 -0.16936843 0.0056486675
000340 7d d5 a7 bd cb e0 d8 3a 04 ea e3 3c fc 55 c5 bd
       -0.081950165 0.0016546486 0.027821548 -0.09635541
000350 49 0c 9c bd aa 9a 25 3b 01 b7 8b bd 01 11 47 3c
       -0.07619531 0.002526919 -0.068220146 0.01215005
000360 c4 60 45 3d cb cf 62 bc 7c a6 86 3d 1c 73 5c 3d
       0.048187986 -0.013843487 0.06574723 0.053820714
000370 dc af c9 3c f8 71 26 3d e4 76 86 3c 4d a2 68 3c
       0.02461999 0.040636033 0.016414113 0.014198852
000380 ba 1a cf 3c 9a e2 c0 3e 97 5e 86 3e 94 3f 2a 3f
       0.025281299 0.37672883 0.2624404 0.6650326
000390 24 61 c7 3e e1 9b 8d 3e 20 f4 2a 3f 27 57 ff 3d
       0.389413 0.2765799 0.66778755 0.12467795
0003a0 d8 7b 08 3e 91 37 00 3f 39 9f 8c bd b3 fe 43 be
       0.13328493 0.5008479 -0.06866307 -0.19140129
0003b0 10 57 7f bc df 60 aa bd 9e be 5e be ce 74 15 bd
       -0.015584722 -0.08319258 -0.21752402 -0.036488347
0003c0 ed b6 a8 bd f6 45 68 be 75 ee 24 3d 74 63 e3 bb
       -0.08238015 -0.22682938 0.040266473 -0.006939346
0003d0 c6 42 89 3c fa 82 a1 3c 6d f7 73 3b de 7c 1b 3d
       0.016755473 0.019715775 0.0037226335 0.03796088
0003e0 88 ba 9f bc 23 ca 1b 3d d4 1d 56 3d 46 10 1b 3b
       -0.019498125 0.03803457 0.05227454 0.0023660823
0003f0 94 65 94 bc df ef ff 3b 02 b2 16 bd 97 d2 92 bb
       -0.018114842 0.0078105773 -0.036790855 -0.0044806707

vd.denoise.net3.bias f4 [16]
000000 a3 23 18 bb b7 7a db 3c 19 f0 6f 3a e6 9a 23 3d
       -0.00232146 0.026791913 0.0009152904 0.039942645
000010 f9 cd e8 3c 37 b3 f6 bc 20 0c 31 3c 29 9d 97 bc
       0.028418528 -0.030114753 0.0108061135 -0.018507557
000020 39 c2 8c bb e7 83 12 bd ce e8 0d bc b3 21 87 bd
       -0.004295614 -0.035770323 -0.008661462 -0.065982245
000030 d7 fc 51 bb a6 20 56 3c 2d d6 a1 3b c9 5d 09 3a
       -0.0032041573 0.013069307 0.004938862 0.00052401103

md1.fusion.net1.weight f4 [16, 6, 3, 3]
000000 40 e7 59 bd 56 ae 34 3e 00 4a cc 3d 83 1b a6 3d
       -0.053199053 0.17644629 0.09975052 0.08110716
000010 4c 69 c3 3d 51 cc 11 3e c6 e2 84 3d 7e 43 99 3c
       0.09541568 0.14238097 0.06488566 0.01870894
000020 0d 89 c4 3d c5 30 1b 3d 72 5d df 3d 1c 67 1a 3e
       0.09596453 0.037888307 0.10906495 0.15078396
000030 d0 78 02 3e 57 8f 21 3e e6 0a 16 3e 02 64 8b 3c
       0.12741399 0.15777336 0.14652595 0.01701546
000040 78 c9 28 3e 84 7b 11 3e 26 11 05 3d 6b 82 23 3e
       0.16483104 0.14207274 0.032487057 0.1596772
000050 0f fd 5f 3d 73 8d 45 bd 14 3d 81 3d 1e cc 02 3e
       0.054684695 -0.0482306 0.06310478 0.12773177
000060 a9 60 26 3b f4 81 b4 3c 4e 44 01 3e b7 96 b6 bc
       0.0025387204 0.022034623 0.12623712 -0.022288663
000070 db ff e6 3d 8e 0a 02 bd 77 bb 3e 3d ea dd d6 3d
       0.11279269 -0.031748347 0.0465655 0.104915455
000080 dd a9 cc 3d a9 56 0d 3e aa 88 24 3d 27 82 de 3d
       0.09993336 0.1380259 0.040169396 0.10864668
000090 8d 03 ac 3d bc c8 c6 bc cd 37 af bd 92 b9 4d 3c
       0.08399115 -0.02426564 -0.08555565 0.01255645
0000a0 e5 97 54 3c fd e3 03 3e 7f 38 c3 bd 0a 12 c1 3d
       0.012975668 0.1287994 -0.0953226 0.09427269
0000b0 ab 91 b3 bc 99 31 4f be 8f 1a ef be 51 9c a3 be
       -0.021920046 -0.20233764 -0.4669995 -0.31955197
0000c0 b8 43 e6 be e1 25 14 bf 46 59 3d bf 25 e8 92 bd
       -0.4497354 -0.578703 -0.73964345 -0.07173184
0000d0 19 33 c9 be 2e 10 25 be a4 e0 6b be 0a 8a 8a 3c
       -0.39296797 -0.16119453 -0.23034912 0.016911525
0000e0 72 b2 14 be 86 db 6d 3c 93 9d bc 3d 4e a2 61 3d
       -0.14521196 0.0145176705 0.092097424 0.055086426
0000f0 b9 20 b7 bd 04 e0 b6 3d 27 c4 ac bc db 34 40 bd
       -0.08941788 0.08929446 -0.021089626 -0.046925407
000100 fa 7c c6 bd fd c2 5f 3d 5e f7 eb bd e4 9d 06 bd
       -0.09691806 0.054629315 -0.11521791 -0.03286542
000110 ea a5 fd 3d 52 04 7a 3d 53 e4 c2 3d 8e 28 b7 3d
       0.12385161 0.061039276 0.09516206 0.08943282
000120 60 0b f0 bd 23 74 a4 bd 33 76 23 3d 54 f0 fc 3b
       -0.117209196 -0.08029964 0.039907645 0.007719079
000130 35 e1 98 bd 56 62 f1 3c 50 01 cc bc e8 de b7 3d
       -0.0746483 0.029465836 -0.02490297 0.08978063
000140 09 fe 02 3d 10 31 5b be 00 9e e7 bd d5 b2 77 bd
       0.031980548 -0.21405435 -0.11309433 -0.060473282
000150 14 66 ee bc 4c d4 89 3d bb 43 a0 3d 40 88 f1 3b
       -0.029101409 0.067299455 0.078254186 0.0073709786
000160 7a 11 1a bc f2 09 3c 3d dc 3a dd 3d 52 c7 c0 bb
       -0.009403581 0.045907922 0.10802242 -0.005883136
000170 b2 08 31 3e 94 b9 a8 bc 19 43 02 bd df c3 f6 3b
       0.17288473 -0.020596303 -0.03180227 0.007530674
000180 80 14 93 3d 42 71 65 bd ce 1b d1 3d cd 79 97 3d
       0.071816444 -0.056016214 0.102103814 0.073962785
000190 6f c3 c4 be 59 9d c7 bd d7 50 96 3c 2e 30 89 be
       -0.38430354 -0.097468086 0.018349094 -0.2679457
0001a0 2a ba 1f be 35 28 ee 3e 25 6e 60 bc 2d 14 fd bd
       -0.1559836 0.4651505 -0.0136981355 -0.12357364
0001b0 59 06 96 3e 37 57 d5 3e 36 40 79 3d b1 e0 02 be
       0.29301718 0.41668102 0.060852252 -0.12781025
0001c0 11 41 63 be 0f 43 73 be 31 f6 c6 3c e0 66 56 be
       -0.2219279 -0.2375605 0.024287315 -0.20937681
0001d0 c4 3e 91 ba d7 80 6d bc 35 3a 99 3d b7 dd b3 3b
       -0.0011081328 -0.01449605 0.07481805 0.005489077
0001e0 b5 bf 6e bd 87 22 c3 bc de ed 1b bd db d3 99 3b
       -0.058288295 -0.023820175 -0.038068645 0.0046944446
0001f0 f3 8d 00 bd 09 f2 53 3c 88 89 13 bc 5a ed 89 3b
       -0.031385373 0.012936124 -0.009004958 0.0042092027
000200 5f cd 03 bd 2f 09 6a bd 8d a1 aa bd 5b d0 a1 bd
       -0.03217828 -0.057137664 -0.083315946 -0.07901069
000210 84 27 07 bd bf 06 2f bd 89 be 61 bd 9d 20 26 3d
       -0.03299667 -0.042731043 -0.05511335 0.040558446
000220 51 e1 11 3e 06 2f 3d 3d 15 e6 80 3c 24 ac ae bd
       0.14246108 0.046187423 0.015734712 -0.08528927
000230 4b ad a6 bc 33 5c b5 3d 44 d7 65 3c 99 72 be 3d
       -0.020346304 0.08855476 0.014028374 0.092992015
000240 76 f0 89 3d 4f b9 c5 3d d5 1c d8 bc d2 90 dd bd
       0.067353174 0.096544854 -0.026380936 -0.10818638
000250 b5 3c b3 bd 04 9b 67 3d 0f 7d 14 3e 25 b5 b3 bd
       -0.08751813 0.05654432 0.14500831 -0.08774785
000260 8e 72 d0 3b 78 fc 3a 3d de 9f c8 3d 0c 7f 57 3e
       0.0063613122 0.04565093 0.09796117 0.21044558
000270 a9 4e 3d bc bf 63 05 bd 6d b8 2c be bb 8f dc bd
       -0.011554399 -0.03256583 -0.16867228 -0.10769602
000280 13 24 27 be 74 11 56 be 0d 7a 09 be ad 59 0a be
       -0.16322355 -0.20905095 -0.13425465 -0.13510771
000290 c3 34 c8 bd a4 3d 0c be 01 6f c8 bd d7 5a 10 3d
       -0.097756885 -0.13695389 -0.09786797 0.03524288
0002a0 05 45 82 3c 00 60 1c be 2c c7 c0 bd 1f 5e a0 bd
       0.015902052 -0.15270996 -0.09412989 -0.07830452
0002b0 fc d9 a6 bd 28 2f c8 bd 79 0c cd 3c f8 e4 1f bc
       -0.08147046 -0.09774619 0.025030361 -0.00975918
0002c0 b3 25 fb bc 16 da 08 be f3 36 1a bd 77 3a c4 bd
       -0.030657625 -0.13364443 -0.03765006 -0.09581464
0002d0 9a 9c 14 be ad b9 ea 3c e3 6b 0b bd bc 0f f1 3c
       -0.14512864 0.02865299 -0.034038436 0.029426448
0002e0 52 20 7a bc 90 fe 6d 3d 7b b0 bf bd 1d 87 97 bc
       -0.015266495 0.058104098 -0.09359833 -0.018497044
0002f0 8e e8 a8 bd a9 e1 88 bd af 80 e5 bd 0a 3f 91 bd
       -0.08247481 -0.06683666 -0.11206185 -0.07092102
000300 f1 b8 ef bd a4 38 29 bd 90 5d 27 bd cd 77 81 3d
       -0.11705197 -0.041313782 -0.040860713 0.06321678
000310 f9 4a 96 bd 8c 66 5f bd 55 83 8e bb 79 34 60 3d
       -0.07338519 -0.054541156 -0.004349152 0.05473754
000320 03 98 90 3c e3 d4 0e be dd a9 de 3c 01 a7 5e 3d
       0.01765061 -0.13948397 0.027180606 0.054358486
000330 b6 f0 8b 3d 0f f0 1b 3e 30 08 75 bd a9 b8 a6 3f
       0.06833021 0.15228294 -0.05982226 1.3025104
000340 4e b0 a2 3f 4b ec 91 3f eb 26 b8 3f 75 d0 86 3f
       1.2710054 1.1400236 1.4386877 1.0532366
000350 0b 02 7f 3f 88 02 79 3f ac 3d 59 3f 79 6a 51 3f
       0.9961249 0.9726949 0.8485973 0.8180309
000360 c9 df 4d bd 39 93 a8 3d 1c 74 c1 bd fb 66 a5 bd
       -0.050262246 0.082312055 -0.09445974 -0.080762826
000370 b9 ad 65 be f3 c9 8f be de fc d3 bd f2 e2 a5 bd
       -0.22429551 -0.28083763 -0.10350965 -0.08099927
000380 5c ea 96 bd a0 ca ad 3d e6 35 1b bd 02 a1 81 3d
       -0.07368919 0.08485913 -0.0378932 0.06329538
000390 ab ca 40 3d f0 c8 1f 3e 73 72 e3 3d 8d 05 02 3e
       0.04706828 0.15603995 0.11105814 0.1269743
0003a0 3f c6 9f 3d ba 3f 42 3e 83 b1 eb 3b 6d ba 76 bd
       0.07801484 0.18969622 0.007192792 -0.060236383
0003b0 5e 37 12 be 71 d8 1e bd f5 1e b2 bd 5a e0 fd bc
       -0.14278933 -0.038780633 -0.08697311 -0.030990768
0003c0 ba a3 d3 bc 67 be 33 3c ed a5 15 bd fb 8b 8b 3d
       -0.025834907 0.010970688 -0.036535192 0.068138085
0003d0 2e 7a 54 3e 0f 78 b0 3d 68 81 b1 3d ac ab 86 3e
       0.20749733 0.08616649 0.086672604 0.2630285
0003e0 40 31 48 3e a1 0c 0b 3e ac 72 00 3e 83 f0 2a 3e
       0.19550037 0.13579036 0.12543744 0.1669331
0003f0 c9 2d d4 bd 27 f0 70 bd 7f d1 0e 3e 92 7e d9 3d
       -0.10360295 -0.058822777 0.13947104 0.106198445

md1.fusion.net1.bias f4 [16]
000000 43 3b d0 bd a0 ac e8 bd 8f c4 16 bd 7a fe 17 3d
       -0.10167553 -0.113610506 -0.036808547 0.037107922
000010 3f 78 64 bd a7 c1 04 bd 0f 20 f6 3c 30 13 12 3d
       -0.055778738 -0.032411244 0.030044584 0.03566283
000020 8f f8 c6 bd 2f 23 0b 3d 9e 09 98 bd 2b c9 bb 3d
       -0.097153775 0.0339691 -0.07423709 0.09169229
000030 27 b4 a7 3d 3d f1 1c be d1 48 04 3e 17 56 2f 3d
       0.08188658 -0.153264 0.12918402 0.04280671
