model/model_best.pth (torch, 551943 bytes, 126 tensors)

ct.net1.weight f4 [4, 4, 1, 1]
00000000: e6df f43e b012 ea3e f171 053f 1d09 ee3e
00000010: 3b42 07bf 66f1 093f 302c 0d3f e5da 06bf
00000020: 5cba 323f defb 8c3e beef 9cbe 9339 2fbf
00000030: 2cba 92be 4d4e 283f e5eb 2bbf 9b9c 893e
0.4782707 0.45717382 0.52126986 0.46491328 -0.52835435 0.5388397 0.5514555 -0.52677757
0.6981561 0.2753591 -0.3065166 -0.68447226 -0.28657663 0.6574448 -0.6715682 0.26877293

ft.net1.weight f4 [2, 1, 1, 2]
00000000: b433 2c3f 43aa 383f f8b6 383f 1208 47bf
0.6726639 0.721348 0.7215419 -0.7774669

fti.net1.weight f4 [1, 1, 2, 1]
00000000: 3ebd 3e3f ac01 313f
0.7450751 0.69143176

fti.net2.weight f4 [1, 1, 2, 1]
00000000: d20e 313f 9f0c 25bf
0.6916324 -0.64472383

vd.fusion.net1.weight f4 [16, 5, 3, 3]
00000000: 6c5d edbc 0e7d 00bd f612 bebd d56a 653d
00000010: ea01 ecbc 28a9 afbc 68b2 723c d83f adbd
00000020: acb8 173d ac94 9d3c 0fee f9bd 7ee9 f23d
00000030: 3ab1 ca3d 8d68 2d3e a162 91bc 99c4 b03d
00000040: 2feb abbd c74b 923d 252d 1fbe 30df 6b3d
00000050: 95d1 f0bc d4ca 8abe d40d 453e fd29 143e
00000060: 8db5 8e3d 94bf c93d 88b0 b8bd 16fa a53d
00000070: a174 b53e 3b3d 813e 764f 65bd ca57 debd
00000080: 7e77 f23d 4bc2 45bd e53e ad3d ecac 893d
00000090: 025c 2ebf e9f5 66bf cc88 62bf a241 5dbf
000000a0: 39c1 7fbf 88d6 5abf 7a1b 24bf d8fa 4ebf
000000b0: 14d2 58bf a7a1 363d 462a 5abe 5d7a 2dbe
000000c0: 5d69 893e 1784 c13c 6c68 fd3b 69a3 ccbd
000000d0: 9c75 d53d 486c 22bd 81ee 303e 4975 923e
000000e0: 5ed5 bd3e 7f4a ba3d e21e d7bc 11bc 383e
000000f0: 0e26 c93d 922f db3d 1c02 973e 9049 9e3d
00000100: d04b ddbd 6ce0 a6bc 47ba 663d d95b bc3d
00000110: c968 1bbe 712d eabd 1c73 d63d 318f 0bbe
00000120: 2170 193e d919 063e 7025 723e 200d a83e
00000130: 24b7 af3e bdff 6cbd 585c 573d 922a 683d
00000140: 2b59 01bc 9717 84bf 2367 90be ac05 3e3f
00000150: 94fc 8cbf 0619 5ebf a4a4 8c3e 0a7c aebf
00000160: 76a4 7fbf 1719 773d 1322 4ebd dee5 57be
00000170: f9d4 91bd 1ef5 63be d7b0 8dbd 5ba4 6bbd
00000180: a80f 78bd 43cf 69bd c3da 32be 7c7b 8d3d
00000190: 864c 9bbd d680 05bd f00e 2dbd 6fa6 6a3d
000001a0: d391 3f3c d29b c9bc 16d4 3a3e 09db 023e
000001b0: 181f 833d f9ba f33d d795 393e 720e 683e
000001c0: 7525 803d 29ad 673d a59b 363e a66c 5f3d
000001d0: 248b 793d 3a0f 4dbd cb2d 28be 440a 2dbe
000001e0: 2d40 58be 0b5a 1fbe 473e e7bd 7fc1 97bd
000001f0: e142 c73c 4c3a 3cbd 6d46 413f 5a33 523f
00000200: 3c10 5d3f 0615 243f f5c9 0f3f 0548 d03e
00000210: bf6b cf3e 2804 133f 42e6 9c3e 2748 143d
00000220: b2ce 1ebe 783e 03bd 937c 36bd bee6 923d
00000230: e63e 2dbd 576d 8e3d c8c6 bf3d a574 37be
00000240: b533 52bd 9961 3dbc 7c6b eabd 7f0d fb3c
00000250: ba7f 2b3e a67f 8bbe f284 58bd c13b 70bc
00000260: b4c8 5ebd d2f5 2f3e a3c9 c03d b76b c9be
00000270: 39f9 843d 3a85 1a3e eefd a6be ec2c 1fbe
00000280: d64f 023e 6164 ab3d a2fa 8d3d 1097 2f3c
00000290: a3ed 01be 933a eb3d 5553 aa3e 4f75 92be
000002a0: c337 463c 081b 453e dc70 a8bd 462e ae3e
000002b0: ac0d 0b3e 55ce e23e cc87 643e dde9 3d3e
000002c0: 61ab 093f 52af c23e 95c7 363e e0cf 253f
000002d0: c668 aabd af6d 583e 4f27 0cbd 113f a1bd
000002e0: a3d5 ecbd 9950 373e 5eb6 923d 1fae c2bd
000002f0: 5b72 37bd 08d9 263e 9624 7f3e 6fcd 14bb
00000300: 9353 273d 007a 1f3e 5bbf 253e ced8 0fbb
00000310: 9704 193c 01af de3c b776 80bd fc4d 41bd
00000320: 34fb 7bbc 044e 8cbd 13d2 1a3e d492 473d
00000330: 8a3e 4d3d f692 f03b 850c 83bd f497 c13d
00000340: 4ae1 0d3e 3b44 5b3e aa05 8a3e c526 603e
00000350: 9d4f ec3d 79a8 e63d b57f 4cbc 4141 4fbb
00000360: b7ef 6abe a8a8 92bd f3df ccbd 737f 683e
00000370: e488 4d3e 8f21 3b3d 1f9c a73e d761 413e
00000380: d373 a13e 6839 61bd 9dd4 6cbe 819a e1bd
00000390: 5c21 47be f813 41bc 7bc2 b0bb 5e8a c9bd
000003a0: eee6 c43d 84b6 0c3e b308 3b3e 7165 eb3d
000003b0: 1ba3 c03d d99a 3b3d a462 e93d 6565 b53d
000003c0: 3a2b 213e 1e1b f53d 0c3a 1a3d 52b0 4dbd
000003d0: 32cd 33be ad15 62be 6a82 d1bd 6dc6 aa3d
000003e0: 4d22 ccbd f79b 70be 9316 dbbd f35f 28bd
000003f0: 309d a43d 4f19 fe3d ce8e bf3d 454e 223d
-0.028975211 -0.03136926 -0.0928096 0.056010086 -0.028809506 -0.021442965 0.014813043 -0.08459443
0.03704135 0.019235931 -0.12203609 0.11860941 0.098970845 0.16934414 -0.017747225 0.08631248
-0.08394467 0.0714336 -0.15544565 0.057585895 -0.029396812 -0.2710787 0.19243556 0.14469142
0.06968222 0.09850994 -0.09018046 0.08104341 0.35440543 0.25242028 -0.055983983 -0.10856588
0.118391976 -0.048280995 0.08459262 0.06722435 -0.6810914 -0.9021898 -0.88489985 -0.8642827
-0.9990421 -0.854836 -0.64104426 -0.8085151 -0.84695554 0.044587757 -0.21305189 -0.16941209
0.26838198 0.023622556 0.0077333953 -0.099921055 0.10422823 -0.039654046 0.17278482 0.28605106
0.3707685 0.0909624 -0.026259843 0.18040492 0.098217115 0.10702433 0.29493797 0.07728875
-0.10805476 -0.020370685 0.05632999 0.09197206 -0.15176691 -0.114344485 0.10471174 -0.13628842
0.1498418 0.13095798 0.23647094 0.32822514 0.34319413 -0.05786108 0.0525783 0.056681223
-0.007894794 -1.0319699 -0.28203687 0.74227405 -1.1014581 -0.8675693 0.2746936 -1.3631604
-0.9986032 0.060326662 -0.050325464 -0.21083781 -0.071206994 -0.22261474 -0.06918495 -0.05752979
-0.060561806 -0.057082426 -0.17466263 0.069083184 -0.07582955 -0.03259357 -0.042250574 0.05728763
0.011692482 -0.024610434 0.18244967 0.12778868 0.06402415 0.119008966 0.18123566 0.2266176
0.06257144 0.056561623 0.17832811 0.054546975 0.06092371 -0.05006335 -0.16423719 -0.16898447
-0.21118231 -0.15561692 -0.11291175 -0.07409953 0.024323883 -0.045954034 0.75498086 0.82109606
0.86352897 0.6409458 0.56167537 0.40679947 0.4051189 0.57428217 0.30644423 0.036201622
-0.15508536 -0.032041997 -0.044552397 0.07172917 -0.042296313 0.06954449 0.093640864 -0.1791559
-0.051318843 -0.011558914 -0.11446282 0.030646084 0.16747943 -0.27245826 -0.05286116 -0.014662684
-0.054390624 0.17183617 0.09413459 -0.39339992 0.06492848 0.15089884 -0.32615608 -0.1554448
0.12725767 0.08368755 0.0693257 0.010717168 -0.12688307 0.114857815 0.33266702 -0.28605124
0.012098256 0.19248593 -0.08224651 0.3401968 0.13579434 0.44298044 0.22317427 0.18546243
0.5377713 0.38024384 0.17849572 0.6477032 -0.08320765 0.21135591 -0.034217175 -0.07873357
-0.115641855 0.1790184 0.0716369 -0.09505867 -0.044786792 0.16293728 0.249163 -0.0022705456
0.040851187 0.15573883 0.16186278 -0.0021949294 0.009339473 0.027183058 -0.06272643 -0.047193512
-0.015379716 -0.06850818 0.151192 0.04872401 0.05010847 0.007341738 -0.06398872 0.09452811
0.13855472 0.21412747 0.26957446 0.2188979 0.115386225 0.11262602 -0.01248162 -0.0031624588
-0.22943006 -0.07161075 -0.100036524 0.22704868 0.20071751 0.0456863 0.32736298 0.18884979
0.3153368 -0.054986387 -0.2312798 -0.110157974 -0.1944632 -0.011784546 -0.0053942776 -0.098408446
0.09614359 0.13741499 0.18265037 0.11493958 0.0940611 0.04580197 0.11395767 0.0885723
0.15739146 0.11968063 0.037653014 -0.05021698 -0.17558745 -0.22078581 -0.10229953 0.08338628
-0.0996748 -0.23496996 -0.10697665 -0.04110713 0.08037794 0.12407171 0.0935341 0.039625425

vd.fusion.net1.bias f4 [16]
00000000: bc64 8dbd ad1c 1b3d 9292 1a3e f878 10bd
00000010: 8399 bbbc b1ee e03d 18b0 70bc db41 893d
00000020: 0727 5cbc 5a9c a33d 0df1 893d c394 20be
00000030: 348d f1ba 0f92 a33c df94 c1bb a71f 513d
-0.06903979 0.037869144 0.15094975 -0.035271615 -0.022900349 0.10983027 -0.0146904215 0.06702014
-0.013437039 0.07988806 0.0673543 -0.15681748 -0.0018428923 0.019967107 -0.0059076394 0.051055577

vd.fusion.net2.weight f4 [16, 16, 3, 3]
00000000: bcc8 813e 4c4d 7b3d 561b 163e f6ea 313e
00000010: c361 753e 2109 613e f3fe 203e 8866 083e
00000020: 7a1f 06be d056 dbbd 32e1 2dbd c93f b8bb
00000030: 2b1b 81bd d360 803d fbf2 333e 96ae 653c
00000040: 94df 573b ea03 a4bc 2d50 e03d 4c36 db3d
00000050: 217f 043e b5e7 9d3d a9bc 003d 8a0a c3bc
00000060: ffc2 2fbd 9d52 efbc 8eb1 a7bd f5e6 2b3e
00000070: 426a 213e f871 02bf eb52 b3bd 3eed 7a3d
00000080: 3e7d 29be a2ea 9c3b 3f24 983c 79a7 8ebc
00000090: 3d31 fbbc 9911 3cbe 3825 ebbd 3558 57bd
000000a0: 3c3a 9fbd b117 44be b9b1 53bd 86a5 bc3d
000000b0: 574a bd3d d3aa cbbd 03b9 c1bd 6953 34bd
000000c0: 2277 933d 2b4c 143e db0a 623d 768e d23d
000000d0: bc13 203b 4dda b63c 71bf aabb f66b 38bc
000000e0: 63b0 abbc c04d 003e 325d 2b3b 118b 65bc
000000f0: a782 183d a59e e13c aac9 993b 3f17 e83d
00000100: 789a a13c 553c 223d 7b6e 713d 096a 953d
00000110: 47c5 423e b9ec 3c3d a112 b43d de19 a03d
00000120: 629f 6d3d a76f 303e a6d3 e4bc cb8b 023d
00000130: b2d3 4ebc 69bf 173e b03e 1fbd 3104 86bd
00000140: 307f 5b3c 9e67 923c 4d7b 91bd 7429 2a3c
00000150: b127 ba3c 4f00 713e 3f78 e53d 3682 b4bd
00000160: 5bc0 1ebd 652a 18be 4973 213d 540d 07bd
00000170: 9445 cfbb 96f0 4bbc 734c b6bd 3b57 3a3d
00000180: 1030 5dbe b94e 7dbc 7d58 98bc 8b56 71bb
00000190: 0efe 9abd 401a e3bd 50a1 843e d849 973e
000001a0: 53ce a8bd 9bc4 de3e d65a a73e facc a1bd
000001b0: c676 f9bc 5289 58bd 0cae babd db04 7bbd
000001c0: b661 f5bd deda f4bd 9251 8539 1796 f0bd
000001d0: 90d7 95bd 7202 99bc 9b90 1a3e 9417 27bd
000001e0: d874 e5ba a40b 6c3e 6d17 143e 44a1 3dbd
000001f0: 24e9 2fbd 6e76 cbbd debc 9f3d 0bc6 b73d
00000200: d475 56bc 6bb0 483e 52a7 4b3e d075 b03d
00000210: 6a5a a53d b67f 393d d799 143d 2761 7ebd
00000220: 0bac 5a3d f3d0 7abd 8268 04bd c16f 573e
00000230: 60c7 113e 9412 b1bd d4a7 06bd f63d a03d
00000240: 9205 a5be 4165 3bbe c732 27bf 69fb adbe
00000250: 4070 40bd 749d a6be ff68 febe 9a97 1f3e
00000260: 28e1 1d3b 8fd6 a53c ebcb 033c bd8a e6bb
00000270: 6f61 523d ee60 3b3d 6e2b 28be 0bfc 1bbc
00000280: ba59 d13d 5b8e 023c b956 31bd 2dc2 f53c
00000290: 379e 843d 6d95 6ebd ece2 5d3d fafe 873d
000002a0: 213e bcbd f495 b23d ab90 013c 9373 a23d
000002b0: 5b25 c4bd 5378 8c3c fd83 21be 61cb 46be
000002c0: 33df 883e 1f34 d3bd e52f 0bbd 1a39 95bd
000002d0: 3318 8ebc a274 fc3d 9189 a93d 7085 c53c
000002e0: 8a12 cc3d f5f7 473e e1d1 8a3d 9268 f0bb
000002f0: bea9 e43b b825 293d 91d7 13bd 3552 96bd
00000300: 7b57 bfbd e589 523c a53b e7bb 4d08 e1bd
00000310: cb85 813d dc20 d2bd 714d ecbb d62d b0bd
00000320: a630 e23a b1f7 4ebe 80b6 40bc 698b cfbd
00000330: 1c0c c5bd 9d7d e3bd da8e 5e3d 80cb 123c
00000340: 2de0 a33d d24b c73d aa96 943c 6d38 133c
00000350: 3587 d3bd 651e e8bc 7db6 ad3c db24 60bc
00000360: 03cd 84bc c717 17be 0236 a5bd 3e49 01bd
00000370: e1c8 74bd 5699 cabc 6718 f53c 650e 36bd
00000380: c6d2 393c 1b24 1a3d ed66 88bd 7fda 0a3d
00000390: 8f3c cdbd 4016 bebd fad0 b6bd 382c 33bd
000003a0: 6f00 3d3b bc54 5dbd 19af c53d ffbb 983d
000003b0: f4fa 9e3d d268 b53d 2a96 f73c dd8d 3dbd
000003c0: 7467 d03c 4584 f3bd 86e6 b2bc bb2e 92be
000003d0: 9168 02bf f4b6 d8be 0e95 f2be dc82 edbe
000003e0: dadd c2be 2556 f0be 3141 19be 3b92 25be
000003f0: bbff 463d e4d0 333d e9bc be3d 2726 18bd
0.2534846 0.061353013 0.14658865 0.17374787 0.23963074 0.21976139 0.15722255 0.13320363
-0.13097945 -0.107099175 -0.04245109 -0.005622838 -0.0630401 0.06268468 0.17573158 0.014018675
0.003293966 -0.020021398 0.10952792 0.10703716 0.12939121 0.0771021 0.03142992 -0.023808736
-0.042910572 -0.029214198 -0.08188163 0.16787322 0.1576319 -0.5095515 -0.0875605 0.061261408
-0.16551682 0.0047887126 0.018571971 -0.017413842 -0.030663127 -0.18366088 -0.11481708 -0.052574355
-0.07774779 -0.19149663 -0.05168316 0.092112586 0.09242695 -0.099446915 -0.09459116 -0.04402486
0.07200457 0.14482181 0.055186134 0.102810785 0.0024425825 0.02232089 -0.00521081 -0.011256209
-0.020958131 0.1252966 0.0026148078 -0.014010207 0.037233975 0.027541468 0.0046932297 0.11332559
0.019726977 0.03960832 0.058943253 0.07295615 0.19020568 0.046124194 0.08792616 0.07817434
0.058013327 0.17230092 -0.027932953 0.0318716 -0.012623714 0.14819111 -0.038878143 -0.06543768
0.013397023 0.017871674 -0.07103596 0.01038586 0.022724004 0.23535274 0.11204576 -0.08813898
-0.038757663 -0.14859922 0.039416585 -0.032971695 -0.006325433 -0.012447497 -0.089013 0.045493346
-0.21600366 -0.0154606635 -0.018596882 -0.0036825265 -0.07567988 -0.11088991 0.25904322 0.29548526
-0.08242478 0.43509373 0.3268649 -0.07900424 -0.030452143 -0.052865334 -0.09115228 -0.061283927
-0.119815275 -0.11955808 0.0002542851 -0.11747377 -0.07316506 -0.018677924 0.15094225 -0.04079397
-0.0017506136 0.23051316 0.14462061 -0.046296373 -0.04294695 -0.09934698 0.077996954 0.089733206
-0.013089616 0.19598548 0.19888046 0.08616221 0.08073886 0.04528781 0.036279526 -0.06210437
0.05338673 -0.061234426 -0.03232623 0.21038724 0.14236212 -0.086461216 -0.032874897 0.07824318
-0.32230812 -0.18300344 -0.65311855 -0.33980873 -0.04698205 -0.32542002 -0.4968948 0.15585175
0.0024090502 0.020243911 0.008044223 -0.007035582 0.05136245 0.045746736 -0.16422817 -0.009520541
0.10222192 0.0079685105 -0.043295596 0.029999817 0.064754896 -0.058247972 0.054171488 0.0664043
-0.09191538 0.087200075 0.007908027 0.079322 -0.095774375 0.017147219 -0.15773006 -0.1941352
0.26732787 -0.10312676 -0.033981223 -0.07286282 -0.017345523 0.123269334 0.08278192 0.02411148
0.099644735 0.19528182 0.067783125 -0.0073366845 0.0069782427 0.041295737 -0.036094252 -0.073398985
-0.093428575 0.012850259 -0.0070566707 -0.109879114 0.06324347 -0.10260174 -0.00721138 -0.086024925
0.001725693 -0.20211674 -0.011762261 -0.10134012 -0.0962145 -0.11107943 0.054335453 0.008959651
0.080017425 0.097312585 0.018138248 0.008985621 -0.10328523 -0.028334806 0.021205181 -0.013680662
-0.016211038 -0.14755164 -0.08066942 -0.03156399 -0.059761886 -0.02473132 0.029918863 -0.04444732
0.011341756 0.03763209 -0.066602565 0.03389978 -0.10021316 -0.092815876 -0.08926578 -0.043743342
0.002883937 -0.054035887 0.09652538 0.074577324 0.07762709 0.088578835 0.030222971 -0.04627787
0.025439955 -0.11890463 -0.021838438 -0.28551278 -0.50940806 -0.42327082 -0.47379345 -0.463889
-0.38059884 -0.46940723 -0.14966275 -0.16169064 0.048583727 0.043900385 0.093133755 -0.03714576

vd.fusion.net2.bias f4 [16]
00000000: 8cff 983c 2b6f a73d c49e 9e3c 2bca eebc
00000010: 35bb 453c f82e 073d 5f87 19bd 7966 7cba
00000020: 3bb8 913d b5e6 d53d 06e2 fb3d 7b4b e3bc
00000030: 3c79 a63d caed f03c d54f 17bc af06 c33d
0.018676542 0.081755005 0.019362815 -0.029149136 0.012068559 0.033003777 -0.037482616 -0.0009628307
0.07115217 0.104443945 0.1229897 -0.027745953 0.08128592 0.029410262 -0.009235342 0.09522759

vd.fusion.net3.weight f4 [1, 16, 3, 3]
00000000: 8132 f33c def4 69bc d46e 063e 1d8d 673d
00000010: 1424 063e 552f 073d 79e3 b3bd 8064 f6bd
00000020: d6ae bcbd 47ad e5bd 1106 553b 8437 15bd
00000030: 7b2b 43be 7b8a 01be 97c3 22bd deaa 17be
00000040: 5ed4 0ebd 025e 9f3b bb2b b03d 44f2 e53d
00000050: 8fc5 263d 8362 813d 93bb c73e 4934 1f3e
00000060: 4725 c53d 3b26 8e3d 46ef e4bd 0bab a3be
00000070: 8090 84be 95eb ccbe 5972 60be 61c7 b9bd
00000080: ffbc 64be 50e4 54be d0d2 b8be c4bc 5cbe
00000090: d386 33bd c36d 03bd 4164 31bd e79d 4abe
000000a0: 2b13 9bbe f734 79be aaa1 6cbd fcaf b5bd
000000b0: 282e e7bd 10af 81be 86ec 23be 3c85 69be
000000c0: a3c6 92be 4cc7 9ebe e763 95be d08a 99be
000000d0: bd7a 5cbe f2e5 81be 2043 073d 4fa2 e1bc
000000e0: df3c a23d 039d f23d af01 6b3e 13c2 b13d
000000f0: 1469 813d 16b7 2a3d 15ec 06bd 9f1a 153d
00000100: e473 863a 0e18 713d f185 3f3e dd8a 3c3e
00000110: 3b54 ddbc a70f 833d dd4c ea3d 1525 3c3d
00000120: d042 b03b d3f7 113e ab9d ff3d f8a6 82bd
00000130: 022f 163e 4b9f 883e 7db8 c0bd 93ba c63d
00000140: 4283 113e 9b4c 50be 11e5 0ebe 08cd 41be
00000150: 07c8 a1bd 5bda e53e caa2 e13d b7bd 38bd
00000160: dbb6 783e b7ef b43c 5200 cf3d 37a2 633e
00000170: 372d ffbb 4903 1b3e f811 ca3e 7c35 c53d
00000180: ebcf b4bc 2854 ca3d 6aa9 f93c b3f1 57bc
00000190: 8b83 a0be a83f 44be f977 34be f32b ecbe
000001a0: 29a4 7dbe ef5b 56be 0b85 8cbe c54f 85bd
000001b0: dbb2 d1bc 566a 493d d295 d93d 7677 cc3d
000001c0: 4dd1 073e 27c6 363c 7a5b d7ba 5be0 803d
000001d0: a276 ae3d 3278 c6bc edeb 053e cd83 9f3d
000001e0: 76e5 29bc f6df 333e 3404 e93d 4bd2 64bd
000001f0: 371f 923d 5f75 12bc 745a 61bb 7d72 0c3e
00000200: b186 2d3d d54b ed3d 5073 ce3d 437e b33d
00000210: 3d67 ac3b 0c0b 0d3e 60dd ca3d 9bd2 8f3b
00000220: 7fd2 19bc 9304 17be 1859 0cbd 5370 08bd
00000230: 4c6d 51be e0a2 83bd df21 8abd 8d56 c8bd
0.029687168 -0.014279572 0.13128215 0.05653106 0.130997 0.033004124 -0.08783621 -0.120308876
-0.09213035 -0.11214691 0.0032504837 -0.036429897 -0.19059555 -0.12650482 -0.03973731 -0.14811274
-0.034870498 0.0048635015 0.08602091 0.11227849 0.04071575 0.06317618 0.39010295 0.15547289
0.09626251 0.06940886 -0.1117845 -0.31966433 -0.25891495 -0.40023485 -0.2191862 -0.09071232
-0.22337721 -0.2079022 -0.36098337 -0.21556383 -0.04382975 -0.0320871 -0.0433085 -0.19786797
-0.30288061 -0.2433661 -0.057771362 -0.08871457 -0.112881005 -0.25328875 -0.16008195 -0.22804731
-0.28667173 -0.31011426 -0.29177782 -0.29988718 -0.21531196 -0.25370747 0.033023 -0.027543215
0.079217665 0.11846354 0.22949861 0.08679595 0.0631887 0.04167851 -0.03293999 0.03640234
0.0010257927 0.05886083 0.18703438 0.18412347 -0.027017703 0.0639947 0.11440442 0.0459338
0.0053790584 0.14254694 0.12481245 -0.06379503 0.1466637 0.2668403 -0.09410188 0.09703555
0.14210227 -0.20341723 -0.1395457 -0.1892587 -0.0789948 0.44893155 0.11017378 -0.0451028
0.24288504 0.022086961 0.10107483 0.22229849 -0.0077873725 0.15137972 0.39466834 0.09629342
-0.0220718 0.09879333 0.03047629 -0.013180184 -0.3135036 -0.19164908 -0.17623891 -0.4612728
-0.24769653 -0.20933507 -0.27445254 -0.065093555 -0.02559798 0.049173675 0.10624279 0.09983723
0.13263436 0.011155642 -0.001643046 0.062927924 0.08518721 -0.024227235 0.1307828 0.07788811
-0.010369649 0.17565903 0.11377755 -0.055864614 0.0713486 -0.008939116 -0.003438619 0.13715549
0.04236478 0.115867294 0.10080588 0.08764317 0.0052613304 0.13773745 0.09905505 0.00438912
-0.009388565 -0.14747839 -0.034264654 -0.033310246 -0.2045185 -0.0642755 -0.06744742 -0.09782133

vd.denoise.net1.weight f4 [16, 21, 3, 3]
00000000: 7473 91bc f812 633d 87e2 c2bc 049f 26bd
00000010: 55c5 e43c 678c 23bc c033 60bd b1af 9c3d
00000020: 8cf7 3a3c b01a b4bd f413 8f3b c754 c03c
00000030: 5cf1 fe3d 5095 a7bd 9978 8f3d 605b 323d
00000040: 7b4d 39be cdc7 e43d 5d83 b13d a1e9 19bd
00000050: e66d 17bd c5f9 7cbe 59a1 083e bc16 64bd
00000060: 7170 00be b0fe 5c3e 1cf0 e1bd 801b 163d
00000070: b7f6 62bd c385 85bb e3bd e33d 9e67 c5bd
00000080: 6cad 3abd f699 093e 6b62 43bd 21f5 a7bd
00000090: 2a65 f33c 0968 0bbd f132 f6b9 5d16 7c3d
000000a0: f0db aa3b b61f 9fbc d4d2 40bd a759 013d
000000b0: a02c 0e3d 92dd 2c3c 1e15 0ebd 5e61 d93c
000000c0: ddf5 57be f5b2 c83d ddd8 94bc ec06 363e
000000d0: ba42 40be d0a6 76bd a0ba 933c 7080 b1bb
000000e0: 08ec cb3a b59f 7f3e 9362 f5bd 1efb 5dbd
000000f0: 4ad1 76be 7dc3 563e cae1 e93d 895a 1fbd
00000100: 31bc 773d 7fca e4bb efe3 19be b5b8 f7bc
00000110: d45f 3b3d 9df2 1f3e 55d6 67bd a0ae a4bd
00000120: 4c00 aabb e4e8 51bc 2a12 d13b 8e81 30bd
00000130: 9422 95bd f33d 253d 3339 ba3c 58b7 08be
00000140: 9140 103d 4c46 873b e24b 91bc dc7c 80bb
00000150: d957 02be b651 6b3e 2be7 4abd 9f19 9cbb
00000160: d4dd ad3d aa8a 1bbc 424f d2b9 d3b0 2dbc
00000170: 4b90 0c3d eeac 773d 13ff 98be 887d c53d
00000180: edce 9c3b 87f8 7abe 6585 d93d 68e5 af3c
00000190: d240 f1bb 63e2 d4bb 2386 da3d 56d1 f53d
000001a0: 4d44 9fbd 810c fcba 3434 833e a67c c3bd
000001b0: b8e7 2bbb 11d7 1abb bf96 8fbb cd7d b9bc
000001c0: c394 883d 71bd 0cbc dd20 ab3b 6271 dfbc
000001d0: 9b36 a73c 1c9c 02bc 6475 7bbb 2157 343b
000001e0: 16d1 1c3c bf65 86bd ec13 763c 247f b6bb
000001f0: 28d5 ad3d acde 0fbd 49ee 773c 4642 63bb
00000200: afc4 39bc 610f 16bd e514 e63d 2c48 e9bc
00000210: cc7b 2f3b 075a f5bd 7f1e 7d3d 6214 c7bb
00000220: df09 8dba 052f 003c 61a9 633c 13a4 54bd
00000230: f3c5 cc3b 9803 043d 0b39 4d3d 6dc6 10bd
00000240: d435 46bc d609 78bc 8946 403c 05b3 a2bd
00000250: 21c9 a33c 8223 713d 7a75 05bd 1fd1 d1bc
00000260: d1ad f83c cd47 37bb 2266 433d a678 09bb
00000270: 4690 4a3e f523 bfbd 1891 0fbe 6092 e33d
00000280: b8b9 1ebe 2bef 69bd 921b d0bc d8aa 063b
00000290: a436 863c ab75 95be 68c3 cc3d b95a 363e
000002a0: dc34 4bbe aea6 6a3e 1508 153e 7011 b13c
000002b0: b258 e7bc 3076 c23c 6876 163e 6a03 40bb
000002c0: a4e2 5abd 60a5 103e ef8b 95bd a801 66bd
000002d0: d07e 043e c45c a63e a001 993e 4e58 ed3e
000002e0: aede 273f 404e 283f 8b6a 313f d002 633f
000002f0: 74cf 7e3f 05aa 973c afa9 9bbd 63e1 733c
00000300: bc8b efbc 5dc4 053d 5c55 92bd 4c91 f53a
00000310: f217 803b 2a5c 343c d59c 0e3c c3cd 55bd
00000320: e297 833c 6e18 93bd b2c6 cb3d 55ea 9a3d
00000330: 57b6 8e3c f3e8 f53c ba35 6ebc a483 d7ba
00000340: 6836 3c3e 0f8a 863d 5f49 143e ca0a 3bbe
00000350: da72 6abd c9c2 29bd 66f0 4938 afb8 fb3d
00000360: 93d8 013d 5b5d 373d 21f1 2b3d e558 8ebc
00000370: d981 d13d 1381 7c3c 7997 b4bc 0e69 16bd
00000380: cefc e43c b05f a8bb 4590 be3d 29fe 1c3e
00000390: 1435 64bd abb0 a9bd 8500 8bbd cae0 0cbb
000003a0: b931 d7bc ee08 053c 4dc2 853e e8b9 58be
000003b0: f48a 31be c32d 76be a979 103e 7a00 dd3e
000003c0: 474f 1dbd a8a4 44bd d52d 82be b0f6 78be
000003d0: 00e9 763e 4abb 903e 76a6 8b3e aec5 83be
000003e0: fd04 08bf 7f5e 943a 6550 5b3d eb91 6e3e
000003f0: 4692 bd3d 580b 69be b37f 6ebe 7ef0 47bc
-0.017755248 0.055438012 -0.023789657 -0.040678993 0.027926126 -0.009982205 -0.054736853 0.07650698
0.011411559 -0.08794153 0.0043663923 0.023477925 0.124483794 -0.08182776 0.07005424 0.043544173
-0.18095963 0.111709215 0.08667634 -0.03757632 -0.03697004 -0.24704655 0.13342799 -0.055685744
-0.12542893 0.2158153 -0.11032125 0.03664732 -0.055411067 -0.0040747835 0.111202024 -0.09638904
-0.045575544 0.13437638 -0.04770128 -0.082010515 0.029711325 -0.034034763 -0.0004695873 0.061544765
0.005214207 -0.0194243 -0.04707606 0.03157964 0.034710526 0.010550873 -0.034688108 0.026535686
-0.21089883 0.09799758 -0.018169815 0.17776078 -0.18775454 -0.06021768 0.018033326 -0.0054169223
0.0015558014 0.24963267 -0.11981692 -0.054194562 -0.24103275 0.2097301 0.11420019 -0.0389047
0.060482208 -0.006982147 -0.15028356 -0.030239442 0.045745686 0.15619893 -0.056600887 -0.080411196
-0.0051880237 -0.012811873 0.006380339 -0.043092303 -0.07281986 0.040342283 0.022732353 -0.1335119
0.035217825 0.004128253 -0.017736379 -0.0039211344 -0.12728824 0.22980389 -0.049536865 -0.0047637965
0.08489576 -0.009493509 -0.00040113373 -0.01060124 0.034317296 0.060467653 -0.29882106 0.09643084
0.0047854097 -0.24508868 0.10621146 0.021471694 -0.0073624635 -0.006496714 0.10670116 0.12002818
-0.07776699 -0.0019229801 0.25625765 -0.09545259 -0.0026230644 -0.0023626725 -0.004381984 -0.022642994
0.06668999 -0.008590088 0.0052224235 -0.027275745 0.02041178 -0.00797179 -0.003836953 0.0027517753
0.009571334 -0.06562375 0.015019398 -0.0055693556 0.08487922 -0.035124466 0.015132495 -0.0034676953
-0.011338397 -0.03663576 0.11234454 -0.028476797 0.002677667 -0.11980062 0.06179666 -0.006075428
-0.0010760388 0.00782371 0.013895364 -0.051914286 0.0062491833 0.03222999 0.05010323 -0.035345484
-0.012097795 -0.015139064 0.011735567 -0.079443015 0.019993367 0.058871754 -0.032582738 -0.025612412
0.03035632 -0.002796638 0.047704823 -0.0020976453 0.19781598 -0.0933303 -0.14020193 0.11111903
-0.15500534 -0.057112854 -0.025403772 0.0020548608 0.016383477 -0.29191336 0.09998208 0.17808045
-0.19844383 0.22915146 0.14553864 0.02161476 -0.028240535 0.023737997 0.14693606 -0.002929891
-0.053438798 0.14125586 -0.07302081 -0.056153923 0.12939 0.3249265 0.29884052 0.46356434
0.6557416 0.657444 0.69303197 0.88676167 0.995353 0.018513689 -0.07600724 0.014885279
-0.029241435 0.03265797 -0.07145187 0.0018735318 0.0039091045 0.011008302 0.008704384 -0.052198183
0.016063634 -0.07182394 0.099500075 0.075642265 0.01742093 0.030018305 -0.014539177 -0.001644243
0.1838013 0.06569301 0.14481114 -0.18265834 -0.057238437 -0.041445527 4.8146023e-05 0.12291085
0.031700682 0.044766765 0.041978005 -0.017376373 0.102298446 0.015411633 -0.022044884 -0.03672128
0.027952578 -0.00513836 0.09304861 0.1533133 -0.05571468 -0.0828565 -0.067872085 -0.002149629
-0.026268827 0.008119805 0.26124802 -0.21164668 -0.17338163 -0.24040894 0.1410891 0.43164426
-0.038405683 -0.04800859 -0.25425592 -0.24312854 0.2411232 0.2826789 0.27275437 -0.25736755
-0.5313261 0.0011319666 0.053543467 0.23297851 0.09256415 -0.22758234 -0.23290901 -0.012203334

vd.denoise.net1.bias f4 [16]
00000000: 038b 853b 7cec fe3c 0c11 683d 3fc2 963c
00000010: caf1 883d 47ef ac3b 762d 443d 2f56 79bb
00000020: ff25 7cbd bd4e b13b cfb5 f2bb 194d 573d
00000030: 05df 2f3d 7464 dcb9 da0e 033d b7e8 d63b
0.0040754094 0.031118624 0.056656882 0.01840317 0.066867426 0.0052775475 0.047894917 -0.0038045754
-0.061559673 0.0054109977 -0.007406927 0.05256376 0.042937297 -0.00042036513 0.031996585 0.0065585035

vd.denoise.net2.weight f4 [16, 16, 3, 3]
00000000: 6cc5 a33d 327e af3d 82d4 0bbe 260f 9c3d
00000010: 4e84 8d3d a25f d63d 6ba1 c63c 7c80 c5bc
00000020: 723b e93b f2c4 b13c bc38 0ebb e431 96bb
00000030: 4289 703d fd66 a9ba 0498 213d 6e92 bc3b
00000040: e76a 53bd f6ea b53d 2842 ab3c a522 10be
00000050: fa09 b7bd d987 9f3d d518 eabd 6a7f 93bc
00000060: 0177 85bc d0d2 783d d87c b7bc 277f f8bc
00000070: 1f4f 38be f3bb fcbd 252f 74bd 1769 8bbd
00000080: d36a a4bd 68ea 5abd bc52 c4bd eff1 e83d
00000090: 4e60 23bd 692b 663d c431 eb3a 223d 93bc
000000a0: 5b92 0fbd f533 803d d754 0dbd b250 b6bd
000000b0: 185e 7bbd 07ef 383d 084a d2bc 9644 813c
000000c0: 7edd f83d 593a 9bbd ac53 f3ba 4177 363c
000000d0: 5b80 673d 1681 4739 4b23 a0bc e5ee 193e
000000e0: eb6a 5c3e afb0 023d 31df 193e 7b3f 3dbd
000000f0: ae2a 94bb 23b8 a63d b0f9 053d 09ae 63bd
00000100: 777f 0d3d e655 323d 6505 99bd a581 84bd
00000110: 3550 cbbb 6f2d 57bd f322 d9bc 8eb3 b23c
00000120: 44d7 28bc d08b 9c3d deea 1d3d cf27 8c3d
00000130: a220 553d 2f80 2f3c 000a 7f3d 138d 2ebb
00000140: efdc 983c 6835 aebc b32e c2bd c590 b53b
00000150: 544f 28bb 63c5 393c 3a0e 15bd 9c58 cc3c
00000160: b04e cd3d e9b0 113d 966f e43c 54fa 3b3d
00000170: b523 78bd 2aac c33c 5df4 f6bc ffb2 563d
00000180: d1ed 723d e3e8 48bd ff96 293d 38f9 0e3e
00000190: 3e1f 80bc fe96 ca3d e810 803d 7264 9fbd
000001a0: 2724 8abd add2 b33c 23f1 693d 6ebf 933b
000001b0: 9afe 813d e508 acbb 9fc1 643d d673 283d
000001c0: 0729 e5bd 7dd0 52bc 34fe 0b3d b47f 3fbd
000001d0: e96d 0abd 8ed4 893b 90ef 80bb eacb e3bd
000001e0: a9ec 10bc 685a 033c 32e1 86bd e1f4 97bd
000001f0: e548 12bd d21c 973d 8a16 c3bc a322 78bd
00000200: c4d2 293c d07f b5bb 4d60 86bc 4a5a 19bd
00000210: de1d 99bb 0b16 11bd c204 0f3d 2c81 f43d
00000220: 6fce ee3d ea8d 013e 60b8 9b3c 20ec 1d3d
00000230: a6ab 273c 707f 93bd 05ac c73d 5b00 7abd
00000240: e817 11bd 716e 973d 289b 8a3d 1a34 a0bb
00000250: d275 3abe e14d 8dbd 4672 32bc 4773 f13c
00000260: 4710 103d 5ef1 68bd 1c50 89bc 6d32 bebc
00000270: 18bb c8bd bb70 44be 26da 0d3d 7a9e 82bd
00000280: 6c8b 15bd f988 13bd d99c 71bc be5c fd3c
00000290: 6213 87bd 2814 85bd 35b4 293d d557 33bd
000002a0: ede0 86bd 4f03 edbb 292d 76ba a026 8ebd
000002b0: 1ffe e8bd 633b 5abd 1a8e 34bd df83 223d
000002c0: bdb5 233c ba25 12bd 6daf b6bd 5c46 17bc
000002d0: a561 ea3c 0bd1 c8bc 9582 a6bb c51c 493d
000002e0: b954 bf3c 7a5f 823d f0ae dbbd a32a 903c
000002f0: 2c61 9dbc d9f1 adbb adbf 7f3d e1dc 27bc
00000300: 1628 11be dafb 803c bf1e e0bd de48 09be
00000310: 2882 b5bd cdcf a1bd 4c99 2c3d b58b 2f3d
00000320: 6c33 eabc 3e83 773c 1a8f a4bc f7f7 823c
00000330: 55a7 a73c c1f8 42bc 36ac acbc a976 953d
00000340: f443 373d 127d c63c 4cca ac3d 8005 163e
00000350: 0fd3 f53d 8a11 443c 51f6 ebbb b23f 9c3d
00000360: c07a 583b 725b f1bb f456 413d 47a6 e6bc
00000370: 962f aabc e910 03be 0495 593c fa40 02bd
00000380: dd4a b3bd 0bc9 4bbc d480 5d3c 08ba 47bc
00000390: f1c9 f3bc fc49 453d b22a 50bd e3b9 cd3d
000003a0: 6142 30bc 2d1f 1a3c 957e 083d 309a b83d
000003b0: 169f 853d cc50 4f3d 6ea9 0abd 8cc5 0abd
000003c0: 4d7e 453d 92c1 b13c 945c 743d f2f2 f73c
000003d0: a523 d93d 8dfa 703d c8a9 b73d 5431 bb3d
000003e0: 1a27 af3d b944 ad3d 9be2 0cbc 6af0 a23c
000003f0: 50e5 75bc d865 67bd 3245 22bb 2a6c 1b3a
0.079966396 0.08568992 -0.13655284 0.07620077 0.06910001 0.10467459 0.024246892 -0.024109118
0.007117682 0.021700356 -0.0021701297 -0.004583584 0.05872465 -0.001292437 0.039451614 0.0057547605
-0.051615622 0.08882706 0.02090557 -0.14075716 -0.0893745 0.07789583 -0.114305176 -0.018005092
-0.016292097 0.06074792 -0.022398397 -0.030334068 -0.17998932 -0.12340536 -0.059615273 -0.06807154
-0.080281876 -0.053446203 -0.09586093 0.1137427 -0.039886765 0.056193743 0.0017943908 -0.017973486
-0.035051685 0.0625991 -0.034504738 -0.0890211 -0.06136903 0.04514983 -0.025670066 0.015779775
0.12151621 -0.07579488 -0.0018564365 0.011136831 0.056518894 0.00019026207 -0.019548079 0.15032537
0.21525161 0.03190678 0.15026547 -0.046203118 -0.0045216894 0.0814059 0.032708824 -0.055585895
0.034545388 0.04353895 -0.07471732 -0.0647004 -0.00620463 -0.052533563 -0.026505923 0.021814134
-0.01030523 0.076438546 0.038554065 0.068435304 0.052033074 0.010711714 0.062265396 -0.002663438
0.018660037 -0.0212657 -0.094815634 0.0055409395 -0.002568205 0.011338565 -0.03639052 0.024944596
0.10024774 0.035569105 0.02788524 0.04589303 -0.060580928 0.023885805 -0.030145818 0.052416798
0.05930883 -0.049050223 0.041403767 0.13962257 -0.015639897 0.09892081 0.062532246 -0.0778283
-0.06745177 0.021951044 0.05711473 0.004508904 0.063473895 -0.0052500837 0.055848714 0.041126095
-0.11189466 -0.01286709 0.034177974 -0.046752647 -0.033796225 0.0042062467 -0.003934808 -0.11122878
-0.008845487 0.00801716 -0.06585921 -0.07419754 -0.03571405 0.07378544 -0.023814458 -0.060579907
0.010365192 -0.005538918 -0.016403342 -0.037439622 -0.00467275 -0.035421412 0.034916647 0.119387
0.11660468 0.12651792 0.019008815 0.038555264 0.010233795 -0.07202041 0.09749607 -0.061035495
-0.03542319 0.07394112 0.06767875 -0.0048890235 -0.18209007 -0.0689962 -0.010891503 0.029473914
0.035171773 -0.05687081 -0.016761832 -0.023217404 -0.0980131 -0.19183628 0.03463187 -0.06377883
-0.036509916 -0.0360193 -0.014746868 0.030928012 -0.06595494 -0.06497985 0.041431624 -0.043784935
-0.0658587 -0.0072330604 -0.00093908847 -0.06940961 -0.11376595 -0.05327929 -0.04408083 0.039676543
0.00999206 -0.03568051 -0.089201786 -0.009233084 0.028611014 -0.024513742 -0.0050814846 0.049099702
0.023355829 0.06365867 -0.10726726 0.017598456 -0.019211374 -0.0053083715 0.062438656 -0.010245533
-0.14175448 0.015745092 -0.10943364 -0.13406703 -0.08862716 -0.07900963 0.042138383 0.042857844
-0.028588973 0.015106974 -0.020087767 0.01598738 0.020465532 -0.011900128 -0.02107821 0.07298023
0.04474254 0.02422956 0.084370226 0.14650536 0.12003147 0.011967072 -0.007200994 0.076293364
0.003303215 -0.0073656375 0.047202066 -0.02815546 -0.020774644 -0.1279942 0.013280157 -0.031800248
-0.087545134 -0.012438069 0.013519485 -0.012190349 -0.02975938 0.04816626 -0.050821967 0.10045221
-0.010758013 0.009406847 0.033323843 0.09013784 0.06524484 0.050614163 -0.033852987 -0.0338798
0.048216153 0.021698747 0.059658602 0.030267213 0.10602502 0.058832694 0.0896793 0.09140268
0.0855238 0.084603734 -0.008598949 0.019890029 -0.015008286 -0.05649361 -0.0024760482 0.00059288985

vd.denoise.net2.bias f4 [16]
00000000: 330e 443d 0a12 973d 2457 793d 2ecb 9e3c
00000010: b8fb 8e3d c2cc 833c d90e a1bb 40fe 7e3d
00000020: 6365 0c3c 089c e13d 91c4 b73c b301 6dbd
00000030: ad21 c03c eaf5 a83c 4861 bebc 8b60 063c
0.047865104 0.073764876 0.06087412 0.019383993 0.06981605 0.016088847 -0.0049151 0.06225419
0.008569094 0.11016089 0.022432597 -0.05786295 0.023453558 0.020625073 -0.023239747 0.008201729

vd.denoise.net3.weight f4 [16, 16, 3, 3]
00000000: a5bb 01bb 4a7e 533c e7a1 423c 3105 f4bb
00000010: 980e 6abd 6f6d debc d38b dabc 8922 163c
00000020: f4bb 78bb 2e52 9fbc 0507 aa3d 51f5 6d3d
00000030: 7be6 723d 3dfc 453e 73f4 063e d719 38bc
00000040: 5652 033d aed0 7c3d e774 173d 7420 df3c
00000050: c1ee a43d c695 f63d 4683 c83d f606 4c3d
00000060: abf6 0d3d 7cfe 83bc 7254 75bc 6cb2 8b3c
00000070: ee75 a5bd 8773 133c da19 4bbd c582 903d
00000080: d48c 7ebd b8dd 683d 75ae da3d 1610 5bbb
00000090: cadd 80bd 0206 63bd c6c0 fabc aac0 c4bd
000000a0: 17a8 9fbd 7db2 c7bd e716 49bd 5197 03bd
000000b0: 3392 cdbd b21d d0bd 3581 b1bd 0c81 b23d
000000c0: 8b10 12be 3b3d b8be b2fa 2cbe 53b6 dabd
000000d0: 77f1 94be 3e5c 01bd 2097 bbbd 6a81 0f3c
000000e0: c6b0 3abc 5830 dabc 4393 143d 6bc1 eb3d
000000f0: 0537 803d f87c c93d affd 603e a971 cfbb
00000100: abdd 22bd a823 05bd 4739 71bd 6213 f2bc
00000110: e313 773c e7e2 a93c a171 8037 8db4 953d
00000120: f655 54bd e70b 80bc 3a9e b4bd bd0c 8abd
00000130: b0f8 893c 037b a83d 9e22 bf3c 11b3 993d
00000140: d0a2 d13b ad32 a4bd ae17 7f3d d4d3 bebd
00000150: 9734 29be fdfa 163d b4c5 02be 1cc6 04bd
00000160: 2159 523e 87bc 1d3e 988d 6ebd 249f 0fbe
00000170: d9ab ddbd 5fdc 02be fda8 7abe a239 0bbe
00000180: 04ba 8dbd 3735 28bd d4e2 a23a 3dca 8e3d
00000190: 9370 91bb 337f c63c 9f26 f93d d95a b13d
000001a0: 4b0a 9f3d 2d23 2e3d 3f20 7f3d d122 83bc
000001b0: a539 24bb 168d c9bd f411 8e3c a221 85bc
000001c0: 9c81 93bd c635 a3bd 9558 35bc ef55 bcbd
000001d0: b3b8 04bd 350c 2dbb 60c8 68bc 1306 dcbc
000001e0: fe18 72bd 94af 3ebb b722 8cbd 761e 3abd
000001f0: 80b9 893c b6af b239 f7b5 63bd ef4c ecbd
00000200: 3754 60bd 309c fbbc 24c7 953d 93e1 d43c
00000210: 14df 80bd a3c0 9abd 081c 973c 4236 813c
00000220: 710c f53c 4d93 7ebc 189d 5c3d 0637 43bc
00000230: 23cb 92bc 4b5f 91bc 207d b1bd 01ea 073d
00000240: 202c c5bc 459c 0c3d aa7c ab3c f970 ab39
00000250: 1d3c 5b3d 8ed2 e23c 0785 933d c6e4 9cbc
00000260: 2218 7a3d 71e3 2fbd 5252 0f3b 342e 683d
00000270: 84c6 7e3d f5c1 e43d 908f bd3c 200e bfbc
00000280: 76ca be3d f56c b1bc b12c 80bd 8f9e 293c
00000290: 50ff 843c 6ce7 98bd 2f1d a4bd 962e a43c
000002a0: 3a8e 46bd 85d0 17be 3f2c 98bd f5ac 073d
000002b0: 7689 96bc d0b6 d3bc ec16 67bd 2ac6 47bd
000002c0: 311c 13bd ca48 913d ac34 313d 602e 933d
000002d0: ef9e 013b 01a8 243d f38e 4e3d e0bb 773d
000002e0: a304 0c3d d1af 573d 736c 1abc 78d7 8ebc
000002f0: 267d f0bd 4a24 17bd 6983 90be 9c3f 81bd
00000300: 8249 7ebe b536 e2bd ffac a83d b35a 023d
00000310: 7066 303e 8ed9 243a 8bcc e63d fc36 5a3d
00000320: f985 a13d 2b61 693e e8f0 1b3e 2ca6 83be
00000330: d932 6e3d 85e1 37bd d71b 2bbe 93d2 bd3b
00000340: 5f7f a7bd 4349 ec3a 3128 e83c c580 c5bd
00000350: 2814 9dbd 480e 463b 9a0e 8cbd cb5b 4e3c
00000360: b611 453d 7310 63bc eab2 883d a320 5d3d
00000370: 2add cd3c dcab 283d 769a 8b3c ab85 723c
00000380: 3a20 d63c b759 bf3e a94c 863e 0424 2c3f
00000390: 70f0 c33e f189 8b3e 94a5 2a3f e4c3 f73d
000003a0: 3350 043e 8d11 ff3e fdf7 89bd d424 42be
000003b0: bd7d 66bc 2124 a8bd 5125 5bbe 2cb8 16bd
000003c0: 3c0d a3bd 3404 65be 8e61 243d d541 e6bb
000003d0: a649 8c3c 65f7 a53c 9330 8e3b ed86 1a3d
000003e0: 5e24 9ebc f606 1d3d 2deb 543d e103 3c3b
000003f0: b011 8fbc 8f5c 083c ff2c 16bd e679 8fbb
-0.0019795683 0.012908528 0.011879421 -0.007446908 -0.057142824 -0.027151791 -0.026678002 0.009163507
-0.0037953826 -0.019448366 0.0830212 0.05809528 0.059301835 0.19334503 0.13179187 -0.011236629
0.032060944 0.06172245 0.03697672 0.027237155 0.08053351 0.12040286 0.097906634 0.049811326
0.03465907 -0.016112559 -0.014973747 0.017052852 -0.08079134 0.008999712 -0.0495852 0.07056192
-0.062146023 0.056852072 0.10677806 -0.0033426336 -0.06292303 -0.05542565 -0.0306095 -0.0960706
-0.077957325 -0.09750841 -0.049094107 -0.03212673 -0.10037651 -0.10161914 -0.086672224 0.0871602
-0.14264123 -0.35984215 -0.16892508 -0.10679307 -0.29090473 -0.03158211 -0.09159684 0.008758882
-0.011394685 -0.02663438 0.036273252 0.11511501 0.06260494 0.09838289 0.21971773 -0.006330688
-0.03976218 -0.032504708 -0.058892515 -0.029550258 0.015080425 0.020738078 1.5311702e-05 0.07309828
-0.05183979 -0.015630675 -0.08819242 -0.06740711 0.016842216 0.082265876 0.023331936 0.07504857
0.0063975826 -0.08017478 0.062278442 -0.09317747 -0.16523968 0.036860455 -0.1277073 -0.032415494
0.20541812 0.15403949 -0.058240503 -0.14025551 -0.10823793 -0.12779377 -0.24478526 -0.13596204
-0.06920245 -0.041066375 0.0012427219 0.06972168 -0.0044384687 0.024230575 0.121655695 0.08659906
0.07765635 0.042514015 0.06228661 -0.016007813 -0.0025058773 -0.09841363 0.017342545 -0.016251389
-0.072024554 -0.07969241 -0.011068483 -0.09196078 -0.032402705 -0.002640498 -0.014207929 -0.026858365
-0.059105866 -0.0029096352 -0.06842559 -0.045439206 0.016812086 0.0003408172 -0.055593457 -0.115381114
-0.054767814 -0.030714124 0.07313374 0.025986468 -0.06292549 -0.07556274 0.018445984 0.015772942
0.02991316 -0.015538049 0.053860754 -0.011914974 -0.017919129 -0.017745635 -0.08666444 0.033182148
-0.024068892 0.034328718 0.020933468 0.00032699833 0.053524125 0.02768829 0.07203107 -0.019152056
0.06105817 -0.042941514 0.0021869135 0.056684688 0.062201038 0.11169807 0.023139745 -0.023322165
0.0931596 -0.0216584 -0.06258524 0.010352745 0.016235024 -0.07466015 -0.08013379 0.020041745
-0.04847548 -0.14825638 -0.07430314 0.03312393 -0.018376093 -0.025844008 -0.056418344 -0.04877297
-0.035915557 0.070939615 0.043263122 0.0718658 0.001977857 0.040199284 0.050429296 0.060481906
0.03418411 0.052657906 -0.00942527 -0.017436728 -0.1174262 -0.036899842 -0.28225258 -0.06310961
-0.24832729 -0.11045591 0.082361214 0.03182478 0.17226577 0.00062885217 0.11269482 0.053275093
0.078868814 0.22790973 0.15228617 -0.25712717 0.05815396 -0.044892807 -0.16709839 0.0057929247
-0.08178591 0.0018027205 0.028339477 -0.096437015 -0.0766986 0.0030220915 -0.068387225 0.012595127
0.048112594 -0.013858902 0.0667475 0.053986203 0.025129873 0.041179523 0.017041426 0.014802377
0.026138414 0.37373134 0.26230362 0.67242455 0.38269377 0.27253678 0.666589 0.1209791
0.12921219 0.49818078 -0.06736753 -0.18959361 -0.014068064 -0.08210016 -0.21400954 -0.036796734
-0.07961509 -0.22364885 0.040132098 -0.0070268908 0.017124962 0.020259568 0.0043392866 0.03772633
-0.01930445 0.038336717 0.051982094 0.0028688835 -0.017464489 0.008322849 -0.036664005 -0.004378545

vd.denoise.net3.bias f4 [16]
00000000: 8e54 3abb 8920 df3c 43b9 913a cf91 223d
00000010: 7e4c d83c ee67 f9bc cc70 1e3c d1a6 9bbc
00000020: 2904 afbb 251c 1bbd 3330 20bc 1a6f 8dbd
00000030: b48b 7cbb 7b61 393c ef4d 7f3b 4a26 e7ba
-0.0028431746 0.027237194 0.0011117834 0.039689835 0.026403662 -0.030445065 0.009670448 -0.019000443
-0.005341072 -0.037868638 -0.009777117 -0.069059566 -0.0038535418 0.011314745 0.0038956364 -0.0017635312

md1.fusion.net1.weight f4 [16, 6, 3, 3]
00000000: 9d05 5dbd 8a52 343e 2041 cc3d dfe9 a53d
00000010: 7e4f c33d 7744 123e 59a6 843d 4f08 973c
00000020: 42a6 c53d 4b3f 133d c26a dc3d 8543 193e
00000030: 53fd 023e e77e 213e d9d7 163e caab 863c
00000040: d5a9 283e 6996 113e 345a 033d 24f4 233e
00000050: db8f 5c3d 5610 44bd 389e 833d 4f3b 033e
00000060: 50f2 3b3b 7959 bd3c 6541 013e cd1e babc
00000070: 2640 e83d 7764 04bd cb04 3e3d 9cec d83d
00000080: ddc1 cd3d 4564 0c3e b153 253d aa99 e03d
00000090: 458c ab3d 51d0 c8bc 82de afbd 49b9 4e3c
000000a0: 443c 553c 4df1 033e ea46 c3bd 4891 c13d
000000b0: 5945 b1bc e376 51be 71c6 eebe 7319 a4be
000000c0: c29c e5be 3dc6 12bf 6462 3cbf 4e79 9dbd
000000d0: 3d0c cabe 136d 27be b719 69be 209c a23c
000000e0: 3165 15be 9a05 813c 392a ba3d 0200 603d
000000f0: 0c4b b9bd b1e3 b63d a011 afbc ef9d 41bd
00000100: 19d8 c4bd 4026 5c3d 18e3 eebd d095 09bd
00000110: 0970 fb3d 5032 753d 64ae c23d 1d6a b63d
00000120: f6c5 ecbd 809f a4bd 2131 193d 201f 103c
00000130: 1b5a 99bd ddf5 df3c 2cc0 d9bc 0de3 ba3d
00000140: 335e 023d a747 5bbe 69ee e5bd a433 80bd
00000150: a4a3 efbc 08eb 893d 5e16 9f3d 6ac5 b13b
00000160: 4474 2cbc f70c 393d e257 db3d 6693 debb
00000170: d334 303e ade3 afbc 6635 05bd 94fd e03b
00000180: 90c1 913d fddb 66bd d34c d03d 352c 923d
00000190: 9eda c3be c285 c4bd 3c3c 6b3c 3c6a 88be
000001a0: 29f4 1dbe cae9 ea3e a654 81bc 9cce febd
000001b0: 47c7 953e 9920 d43e 6124 7a3d daaa 02be
000001c0: 12ba 62be 58f7 72be 2d3d ca3c 162d 56be
000001d0: 8e6f 00bb 8ff6 59bc d87c 9b3d 81c1 d33b
000001e0: 6fb2 70bd 8bba c6bc 88a6 1ebd 4677 9d3b
000001f0: 5e69 02bd a598 4a3c 63ca 06bc 04e4 863b
00000200: adb3 02bd 23b6 6bbd 7847 acbd 5cbf a2bd
00000210: 031d 06bd 42cc 2fbd 3927 66bd 1d87 293d
00000220: 45b5 123e 4310 453d 9501 863c 89e4 adbd
00000230: 178e a4bc ae3b b43d 3721 643c 0f91 bf3d
00000240: 9468 8a3d e31c c63d 2e24 d5bc 9039 ddbd
00000250: 1a0a b3bd 147d 683d 2fc8 143e 7164 b3bd
00000260: 926e d83b 0c70 423d a69e cb3d 683f 593e
00000270: d10a 0cbc 6081 f4bc 51f9 29be de95 d7bd
00000280: c724 25be 1bdb 53be 279a 09be 8390 0bbe
00000290: 33c2 cabd 2ccd 0cbe f9a9 c9bd bdb3 0f3d
000002a0: 5a2f 783c fba2 1dbe e1e0 c3bd 9392 9ebd
000002b0: 2e74 a7bd 8618 cabd a4a6 c93c 794c 2abc
000002c0: c3e7 05bd eede 0bbe ce69 22bd d2a0 c8bd
000002d0: 7ded 14be c298 ea3c 8700 11bd 4dca ec3c
000002e0: e5ac 84bc e0d0 653d 5e68 c2bd 89df 9fbc
000002f0: 83c4 aabd 01f7 85bd b918 e5bd c944 90bd
00000300: ec00 f0bd 93a5 2cbd 505e 2bbd 15bf 7e3d
00000310: a53f 97bd 9dd9 61bd 9e43 9cbb 230b 5f3d
00000320: 230b 8c3c d95a 0fbe b879 db3c 468e 5c3d
00000330: f17d 8b3d 95c7 1b3e 2e45 76bd a517 a63f
00000340: 2b1c a23f d160 913f 5d2e b73f 11e6 853f
00000350: 6d61 7d3f 560f 783f 4b7a 583f c5bb 503f
00000360: 6160 4cbd ef56 a93d 7bd0 c1bd 929e 9fbd
00000370: e206 63be e82e 8fbe 21a6 d2bd 24b1 a6bd
00000380: 4991 99bd 4e9a ac3d 8528 1ebd 344f 803d
00000390: 3409 3c3d 5f90 1f3e 5f4d e23d 3a8f 003e
000003a0: 5488 9e3d 2d6a 413e 6048 cc3b 4682 77bd
000003b0: 3c5c 14be 6a76 23bd dc10 b0bd 8a9e fdbc
000003c0: 9572 e7bc 98fd 153c c336 1bbd 8f47 8c3d
000003d0: c0f2 543e bad0 b03d 78ff b13d 55ce 853e
000003e0: 1d72 473e d3bf 0a3e 3178 fd3d 48d9 2a3e
000003f0: 1bc8 d4bd b747 73bd 7c87 0e3e 73ad d93d
-0.05396043 0.17609611 0.09973359 0.08101248 0.09536646 0.1428393 0.06477041 0.018436579
0.09650852 0.035949033 0.1076255 0.14967163 0.12791948 0.15771066 0.14730777 0.016439337
0.16471036 0.14217533 0.032068446 0.16011101 0.05384813 -0.04786714 0.06426662 0.12815593
0.0028678365 0.023113953 0.12622602 -0.022719765 0.1134036 -0.032322373 0.04639129 0.10592005
0.10046742 0.13710125 0.040363017 0.10966809 0.08376364 -0.024513396 -0.08587362 0.012617418
0.013014857 0.12885018 -0.0953501 0.09451538 -0.021639513 -0.20455508 -0.46635774 -0.32050666
-0.4484616 -0.5733374 -0.7358763 -0.07689153 -0.39462462 -0.16350202 -0.22763716 0.019849837
-0.14589383 0.015749741 0.090900846 0.054687507 -0.09047517 0.089301474 -0.021370709 -0.047269758
-0.0961153 0.053747416 -0.116644084 -0.033590138 0.122772284 0.059862435 0.095059186 0.08906958
-0.115611956 -0.08038235 0.03740037 0.008796483 -0.074878894 0.027338916 -0.026580893 0.09125338
0.031828117 -0.21414052 -0.11227114 -0.0625985 -0.029252835 0.06734282 0.07767938 0.005425145
-0.010525767 0.04517838 0.10710122 -0.0067924736 0.17207651 -0.021470869 -0.032521628 0.0068661664
0.07116997 -0.05636214 0.10170903 0.07137338 -0.3825273 -0.09595825 0.014357623 -0.2664355
-0.15425171 0.45881492 -0.015787434 -0.12441751 0.292536 0.4143112 0.06106985 -0.12760487
-0.22141293 -0.23727167 0.024687374 -0.20915636 -0.0019597742 -0.013303413 0.075921714 0.0064622764
-0.058763918 -0.024258872 -0.038733035 0.0048054783 -0.031838767 0.012365495 -0.008226964 0.004116537
-0.031909633 -0.057546746 -0.08412069 -0.07946655 -0.03274251 -0.042919405 -0.05618975 0.04138862
0.14326961 0.04811121 0.016358176 -0.08490855 -0.020087285 0.088004455 0.013923935 0.093538396
0.06758228 0.096734785 -0.026018228 -0.10801995 -0.08742161 0.05675991 0.14529489 -0.08759392
0.006604978 0.047470137 0.09942369 0.21215594 -0.008547501 -0.029846847 -0.16599013 -0.10526632
-0.1612731 -0.20689051 -0.1343771 -0.13629346 -0.09900322 -0.13750142 -0.09846873 0.03508352
0.015148008 -0.15394203 -0.095643766 -0.077428006 -0.081764564 -0.09867959 0.024615593 -0.010394209
-0.03269173 -0.1365926 -0.039651684 -0.09796299 -0.1454372 0.028637294 -0.035400894 0.028905058
-0.016195724 0.0561074 -0.09492563 -0.01951577 -0.08338263 -0.06541253 -0.11186356 -0.0704437
-0.11718926 -0.04215009 -0.04183799 0.06219395 -0.07385186 -0.055139173 -0.004768803 0.05445398
0.017095154 -0.139995 0.026791438 0.05384662 0.06811131 0.15212853 -0.06012457 1.2975966
1.2664846 1.1357671 1.4311024 1.0460836 0.98976785 0.968984 0.84561604 0.81536514
-0.0498966 0.082685344 -0.094635926 -0.07793917 -0.22170594 -0.27965474 -0.10285593 -0.08139256
-0.07498414 0.08427869 -0.03861286 0.06265107 0.045907214 0.15582417 0.110499136 0.12554637
0.07740846 0.18888159 0.0062342137 -0.060426973 -0.1448831 -0.03990785 -0.08596966 -0.030959386
-0.02825288 0.0091547 -0.03789402 0.06849586 0.20795727 0.086335614 0.08691305 0.2613398
0.19477125 0.13549738 0.1237644 0.16684449 -0.103897296 -0.059394564 0.1391887 0.10628786

md1.fusion.net1.bias f4 [16]
00000000: 5728 d1bd ba16 e8bd d6ed 14bd 4da9 173d
00000010: 27b1 63bd a2fa 02bd 9a68 f73c 09a4 123d
00000020: 32bd c6bd d9ba 063d b66c 97bd bbca bb3d
00000030: 9397 a73d a936 1dbe 657e 043e 6ab3 2e3d
-0.10212772 -0.1133246 -0.03635963 0.037026692 -0.055588868 -0.031977303 0.030201245 0.035800967
-0.09704055 0.032893036 -0.07393782 0.09169527 0.08183207 -0.15352882 0.1293884 0.04265157
